<?xml version="1.0"?>
<net name="tf2onnx" version="11">
	<layers>
		<layer id="0" name="mobilenet_v1" type="Parameter" version="opset1">
			<data shape="1,224,224,3" element_type="f32" />
			<rt_info>
				<attribute name="old_api_map_element_type" version="0" value="f16" />
			</rt_info>
			<output>
				<port id="0" precision="FP32" names="mobilenet_v1">
					<dim>1</dim>
					<dim>224</dim>
					<dim>224</dim>
					<dim>3</dim>
				</port>
			</output>
		</layer>
		<layer id="1" name="mobilenet_v1/fq_output_0/input_low_compressed" type="Const" version="opset1">
			<data element_type="f16" shape="" offset="0" size="2" />
			<output>
				<port id="0" precision="FP16" />
			</output>
		</layer>
		<layer id="2" name="mobilenet_v1/fq_output_0/input_low" type="Convert" version="opset1">
			<data destination_type="f32" />
			<rt_info>
				<attribute name="decompression" version="0" />
			</rt_info>
			<input>
				<port id="0" precision="FP16" />
			</input>
			<output>
				<port id="1" precision="FP32" />
			</output>
		</layer>
		<layer id="3" name="mobilenet_v1/fq_output_0/input_high_compressed" type="Const" version="opset1">
			<data element_type="f16" shape="" offset="2" size="2" />
			<output>
				<port id="0" precision="FP16" />
			</output>
		</layer>
		<layer id="4" name="mobilenet_v1/fq_output_0/input_high" type="Convert" version="opset1">
			<data destination_type="f32" />
			<rt_info>
				<attribute name="decompression" version="0" />
			</rt_info>
			<input>
				<port id="0" precision="FP16" />
			</input>
			<output>
				<port id="1" precision="FP32" />
			</output>
		</layer>
		<layer id="5" name="mobilenet_v1/fq_output_0/output_low_compressed" type="Const" version="opset1">
			<data element_type="f16" shape="" offset="0" size="2" />
			<output>
				<port id="0" precision="FP16" />
			</output>
		</layer>
		<layer id="6" name="mobilenet_v1/fq_output_0/output_low" type="Convert" version="opset1">
			<data destination_type="f32" />
			<rt_info>
				<attribute name="decompression" version="0" />
			</rt_info>
			<input>
				<port id="0" precision="FP16" />
			</input>
			<output>
				<port id="1" precision="FP32" />
			</output>
		</layer>
		<layer id="7" name="mobilenet_v1/fq_output_0/output_high_compressed" type="Const" version="opset1">
			<data element_type="f16" shape="" offset="2" size="2" />
			<output>
				<port id="0" precision="FP16" />
			</output>
		</layer>
		<layer id="8" name="mobilenet_v1/fq_output_0/output_high" type="Convert" version="opset1">
			<data destination_type="f32" />
			<rt_info>
				<attribute name="decompression" version="0" />
			</rt_info>
			<input>
				<port id="0" precision="FP16" />
			</input>
			<output>
				<port id="1" precision="FP32" />
			</output>
		</layer>
		<layer id="9" name="mobilenet_v1/fq_output_0" type="FakeQuantize" version="opset1">
			<data levels="256" auto_broadcast="numpy" />
			<input>
				<port id="0" precision="FP32">
					<dim>1</dim>
					<dim>224</dim>
					<dim>224</dim>
					<dim>3</dim>
				</port>
				<port id="1" precision="FP32" />
				<port id="2" precision="FP32" />
				<port id="3" precision="FP32" />
				<port id="4" precision="FP32" />
			</input>
			<output>
				<port id="5" precision="FP32">
					<dim>1</dim>
					<dim>224</dim>
					<dim>224</dim>
					<dim>3</dim>
				</port>
			</output>
		</layer>
		<layer id="10" name="Constant_76" type="Const" version="opset1">
			<data element_type="i64" shape="4" offset="4" size="32" />
			<output>
				<port id="0" precision="I64">
					<dim>4</dim>
				</port>
			</output>
		</layer>
		<layer id="11" name="mobilenet_1.00_224_1/conv1_bn_1/batchnorm/mul_1__6" type="Transpose" version="opset1">
			<input>
				<port id="0" precision="FP32">
					<dim>1</dim>
					<dim>224</dim>
					<dim>224</dim>
					<dim>3</dim>
				</port>
				<port id="1" precision="I64">
					<dim>4</dim>
				</port>
			</input>
			<output>
				<port id="2" precision="FP32" names="mobilenet_1.00_224_1/conv1_bn_1/batchnorm/mul_1__6:0">
					<dim>1</dim>
					<dim>3</dim>
					<dim>224</dim>
					<dim>224</dim>
				</port>
			</output>
		</layer>
		<layer id="12" name="Constant_67896" type="Const" version="opset1">
			<data element_type="i8" shape="32, 3, 3, 3" offset="36" size="864" />
			<output>
				<port id="0" precision="I8">
					<dim>32</dim>
					<dim>3</dim>
					<dim>3</dim>
					<dim>3</dim>
				</port>
			</output>
		</layer>
		<layer id="13" name="Convert_67897" type="Convert" version="opset1">
			<data destination_type="f32" />
			<input>
				<port id="0" precision="I8">
					<dim>32</dim>
					<dim>3</dim>
					<dim>3</dim>
					<dim>3</dim>
				</port>
			</input>
			<output>
				<port id="1" precision="FP32">
					<dim>32</dim>
					<dim>3</dim>
					<dim>3</dim>
					<dim>3</dim>
				</port>
			</output>
		</layer>
		<layer id="14" name="Constant_67898_compressed" type="Const" version="opset1">
			<data element_type="f16" shape="32, 1, 1, 1" offset="900" size="64" />
			<output>
				<port id="0" precision="FP16">
					<dim>32</dim>
					<dim>1</dim>
					<dim>1</dim>
					<dim>1</dim>
				</port>
			</output>
		</layer>
		<layer id="15" name="Constant_67898" type="Convert" version="opset1">
			<data destination_type="f32" />
			<rt_info>
				<attribute name="decompression" version="0" />
			</rt_info>
			<input>
				<port id="0" precision="FP16">
					<dim>32</dim>
					<dim>1</dim>
					<dim>1</dim>
					<dim>1</dim>
				</port>
			</input>
			<output>
				<port id="1" precision="FP32">
					<dim>32</dim>
					<dim>1</dim>
					<dim>1</dim>
					<dim>1</dim>
				</port>
			</output>
		</layer>
		<layer id="16" name="Conv__227/WithoutBiases/fq_weights_1" type="Multiply" version="opset1">
			<data auto_broadcast="numpy" />
			<input>
				<port id="0" precision="FP32">
					<dim>32</dim>
					<dim>3</dim>
					<dim>3</dim>
					<dim>3</dim>
				</port>
				<port id="1" precision="FP32">
					<dim>32</dim>
					<dim>1</dim>
					<dim>1</dim>
					<dim>1</dim>
				</port>
			</input>
			<output>
				<port id="2" precision="FP32">
					<dim>32</dim>
					<dim>3</dim>
					<dim>3</dim>
					<dim>3</dim>
				</port>
			</output>
		</layer>
		<layer id="17" name="Conv__227/WithoutBiases" type="Convolution" version="opset1">
			<data strides="2, 2" dilations="1, 1" pads_begin="0, 0" pads_end="1, 1" auto_pad="explicit" />
			<input>
				<port id="0" precision="FP32">
					<dim>1</dim>
					<dim>3</dim>
					<dim>224</dim>
					<dim>224</dim>
				</port>
				<port id="1" precision="FP32">
					<dim>32</dim>
					<dim>3</dim>
					<dim>3</dim>
					<dim>3</dim>
				</port>
			</input>
			<output>
				<port id="2" precision="FP32">
					<dim>1</dim>
					<dim>32</dim>
					<dim>112</dim>
					<dim>112</dim>
				</port>
			</output>
		</layer>
		<layer id="18" name="Reshape_90_compressed" type="Const" version="opset1">
			<data element_type="f16" shape="1, 32, 1, 1" offset="964" size="64" />
			<output>
				<port id="0" precision="FP16">
					<dim>1</dim>
					<dim>32</dim>
					<dim>1</dim>
					<dim>1</dim>
				</port>
			</output>
		</layer>
		<layer id="19" name="Reshape_90" type="Convert" version="opset1">
			<data destination_type="f32" />
			<rt_info>
				<attribute name="decompression" version="0" />
			</rt_info>
			<input>
				<port id="0" precision="FP16">
					<dim>1</dim>
					<dim>32</dim>
					<dim>1</dim>
					<dim>1</dim>
				</port>
			</input>
			<output>
				<port id="1" precision="FP32">
					<dim>1</dim>
					<dim>32</dim>
					<dim>1</dim>
					<dim>1</dim>
				</port>
			</output>
		</layer>
		<layer id="20" name="Conv__227" type="Add" version="opset1">
			<data auto_broadcast="numpy" />
			<input>
				<port id="0" precision="FP32">
					<dim>1</dim>
					<dim>32</dim>
					<dim>112</dim>
					<dim>112</dim>
				</port>
				<port id="1" precision="FP32">
					<dim>1</dim>
					<dim>32</dim>
					<dim>1</dim>
					<dim>1</dim>
				</port>
			</input>
			<output>
				<port id="2" precision="FP32" names="Conv__227:0">
					<dim>1</dim>
					<dim>32</dim>
					<dim>112</dim>
					<dim>112</dim>
				</port>
			</output>
		</layer>
		<layer id="21" name="mobilenet_1.00_224_1/conv1_relu_1/Relu6" type="Clamp" version="opset1">
			<data min="0" max="6" />
			<input>
				<port id="0" precision="FP32">
					<dim>1</dim>
					<dim>32</dim>
					<dim>112</dim>
					<dim>112</dim>
				</port>
			</input>
			<output>
				<port id="1" precision="FP32" names="mobilenet_1.00_224_1/conv1_relu_1/Relu6:0">
					<dim>1</dim>
					<dim>32</dim>
					<dim>112</dim>
					<dim>112</dim>
				</port>
			</output>
		</layer>
		<layer id="22" name="mobilenet_1.00_224_1/conv1_relu_1/Relu6/fq_output_0/input_low_compressed" type="Const" version="opset1">
			<data element_type="f16" shape="1, 32, 1, 1" offset="1028" size="64" />
			<output>
				<port id="0" precision="FP16">
					<dim>1</dim>
					<dim>32</dim>
					<dim>1</dim>
					<dim>1</dim>
				</port>
			</output>
		</layer>
		<layer id="23" name="mobilenet_1.00_224_1/conv1_relu_1/Relu6/fq_output_0/input_low" type="Convert" version="opset1">
			<data destination_type="f32" />
			<rt_info>
				<attribute name="decompression" version="0" />
			</rt_info>
			<input>
				<port id="0" precision="FP16">
					<dim>1</dim>
					<dim>32</dim>
					<dim>1</dim>
					<dim>1</dim>
				</port>
			</input>
			<output>
				<port id="1" precision="FP32">
					<dim>1</dim>
					<dim>32</dim>
					<dim>1</dim>
					<dim>1</dim>
				</port>
			</output>
		</layer>
		<layer id="24" name="mobilenet_1.00_224_1/conv1_relu_1/Relu6/fq_output_0/input_high_compressed" type="Const" version="opset1">
			<data element_type="f16" shape="1, 32, 1, 1" offset="1092" size="64" />
			<output>
				<port id="0" precision="FP16">
					<dim>1</dim>
					<dim>32</dim>
					<dim>1</dim>
					<dim>1</dim>
				</port>
			</output>
		</layer>
		<layer id="25" name="mobilenet_1.00_224_1/conv1_relu_1/Relu6/fq_output_0/input_high" type="Convert" version="opset1">
			<data destination_type="f32" />
			<rt_info>
				<attribute name="decompression" version="0" />
			</rt_info>
			<input>
				<port id="0" precision="FP16">
					<dim>1</dim>
					<dim>32</dim>
					<dim>1</dim>
					<dim>1</dim>
				</port>
			</input>
			<output>
				<port id="1" precision="FP32">
					<dim>1</dim>
					<dim>32</dim>
					<dim>1</dim>
					<dim>1</dim>
				</port>
			</output>
		</layer>
		<layer id="26" name="mobilenet_1.00_224_1/conv1_relu_1/Relu6/fq_output_0/output_low_compressed" type="Const" version="opset1">
			<data element_type="f16" shape="1, 32, 1, 1" offset="1028" size="64" />
			<output>
				<port id="0" precision="FP16">
					<dim>1</dim>
					<dim>32</dim>
					<dim>1</dim>
					<dim>1</dim>
				</port>
			</output>
		</layer>
		<layer id="27" name="mobilenet_1.00_224_1/conv1_relu_1/Relu6/fq_output_0/output_low" type="Convert" version="opset1">
			<data destination_type="f32" />
			<rt_info>
				<attribute name="decompression" version="0" />
			</rt_info>
			<input>
				<port id="0" precision="FP16">
					<dim>1</dim>
					<dim>32</dim>
					<dim>1</dim>
					<dim>1</dim>
				</port>
			</input>
			<output>
				<port id="1" precision="FP32">
					<dim>1</dim>
					<dim>32</dim>
					<dim>1</dim>
					<dim>1</dim>
				</port>
			</output>
		</layer>
		<layer id="28" name="mobilenet_1.00_224_1/conv1_relu_1/Relu6/fq_output_0/output_high_compressed" type="Const" version="opset1">
			<data element_type="f16" shape="1, 32, 1, 1" offset="1092" size="64" />
			<output>
				<port id="0" precision="FP16">
					<dim>1</dim>
					<dim>32</dim>
					<dim>1</dim>
					<dim>1</dim>
				</port>
			</output>
		</layer>
		<layer id="29" name="mobilenet_1.00_224_1/conv1_relu_1/Relu6/fq_output_0/output_high" type="Convert" version="opset1">
			<data destination_type="f32" />
			<rt_info>
				<attribute name="decompression" version="0" />
			</rt_info>
			<input>
				<port id="0" precision="FP16">
					<dim>1</dim>
					<dim>32</dim>
					<dim>1</dim>
					<dim>1</dim>
				</port>
			</input>
			<output>
				<port id="1" precision="FP32">
					<dim>1</dim>
					<dim>32</dim>
					<dim>1</dim>
					<dim>1</dim>
				</port>
			</output>
		</layer>
		<layer id="30" name="mobilenet_1.00_224_1/conv1_relu_1/Relu6/fq_output_0" type="FakeQuantize" version="opset1">
			<data levels="256" auto_broadcast="numpy" />
			<input>
				<port id="0" precision="FP32">
					<dim>1</dim>
					<dim>32</dim>
					<dim>112</dim>
					<dim>112</dim>
				</port>
				<port id="1" precision="FP32">
					<dim>1</dim>
					<dim>32</dim>
					<dim>1</dim>
					<dim>1</dim>
				</port>
				<port id="2" precision="FP32">
					<dim>1</dim>
					<dim>32</dim>
					<dim>1</dim>
					<dim>1</dim>
				</port>
				<port id="3" precision="FP32">
					<dim>1</dim>
					<dim>32</dim>
					<dim>1</dim>
					<dim>1</dim>
				</port>
				<port id="4" precision="FP32">
					<dim>1</dim>
					<dim>32</dim>
					<dim>1</dim>
					<dim>1</dim>
				</port>
			</input>
			<output>
				<port id="5" precision="FP32">
					<dim>1</dim>
					<dim>32</dim>
					<dim>112</dim>
					<dim>112</dim>
				</port>
			</output>
		</layer>
		<layer id="31" name="Constant_67900" type="Const" version="opset1">
			<data element_type="i8" shape="32, 1, 1, 3, 3" offset="1156" size="288" />
			<output>
				<port id="0" precision="I8">
					<dim>32</dim>
					<dim>1</dim>
					<dim>1</dim>
					<dim>3</dim>
					<dim>3</dim>
				</port>
			</output>
		</layer>
		<layer id="32" name="Convert_67901" type="Convert" version="opset1">
			<data destination_type="f32" />
			<input>
				<port id="0" precision="I8">
					<dim>32</dim>
					<dim>1</dim>
					<dim>1</dim>
					<dim>3</dim>
					<dim>3</dim>
				</port>
			</input>
			<output>
				<port id="1" precision="FP32">
					<dim>32</dim>
					<dim>1</dim>
					<dim>1</dim>
					<dim>3</dim>
					<dim>3</dim>
				</port>
			</output>
		</layer>
		<layer id="33" name="Constant_67902_compressed" type="Const" version="opset1">
			<data element_type="f16" shape="32, 1, 1, 1, 1" offset="1444" size="64" />
			<output>
				<port id="0" precision="FP16">
					<dim>32</dim>
					<dim>1</dim>
					<dim>1</dim>
					<dim>1</dim>
					<dim>1</dim>
				</port>
			</output>
		</layer>
		<layer id="34" name="Constant_67902" type="Convert" version="opset1">
			<data destination_type="f32" />
			<rt_info>
				<attribute name="decompression" version="0" />
			</rt_info>
			<input>
				<port id="0" precision="FP16">
					<dim>32</dim>
					<dim>1</dim>
					<dim>1</dim>
					<dim>1</dim>
					<dim>1</dim>
				</port>
			</input>
			<output>
				<port id="1" precision="FP32">
					<dim>32</dim>
					<dim>1</dim>
					<dim>1</dim>
					<dim>1</dim>
					<dim>1</dim>
				</port>
			</output>
		</layer>
		<layer id="35" name="mobilenet_1.00_224_1/conv_dw_1_bn_1/batchnorm/mul_1/fq_weights_1" type="Multiply" version="opset1">
			<data auto_broadcast="numpy" />
			<input>
				<port id="0" precision="FP32">
					<dim>32</dim>
					<dim>1</dim>
					<dim>1</dim>
					<dim>3</dim>
					<dim>3</dim>
				</port>
				<port id="1" precision="FP32">
					<dim>32</dim>
					<dim>1</dim>
					<dim>1</dim>
					<dim>1</dim>
					<dim>1</dim>
				</port>
			</input>
			<output>
				<port id="2" precision="FP32">
					<dim>32</dim>
					<dim>1</dim>
					<dim>1</dim>
					<dim>3</dim>
					<dim>3</dim>
				</port>
			</output>
		</layer>
		<layer id="36" name="mobilenet_1.00_224_1/conv_dw_1_bn_1/batchnorm/mul_1" type="GroupConvolution" version="opset1">
			<data strides="1, 1" pads_begin="1, 1" pads_end="1, 1" dilations="1, 1" auto_pad="explicit" />
			<input>
				<port id="0" precision="FP32">
					<dim>1</dim>
					<dim>32</dim>
					<dim>112</dim>
					<dim>112</dim>
				</port>
				<port id="1" precision="FP32">
					<dim>32</dim>
					<dim>1</dim>
					<dim>1</dim>
					<dim>3</dim>
					<dim>3</dim>
				</port>
			</input>
			<output>
				<port id="2" precision="FP32" names="mobilenet_1.00_224_1/conv_dw_1_1/depthwise:0,mobilenet_1.00_224_1/conv_dw_1_bn_1/batchnorm/mul_1:0">
					<dim>1</dim>
					<dim>32</dim>
					<dim>112</dim>
					<dim>112</dim>
				</port>
			</output>
		</layer>
		<layer id="37" name="const_fold_opt__397_compressed" type="Const" version="opset1">
			<data element_type="f16" shape="1, 32, 1, 1" offset="1508" size="64" />
			<output>
				<port id="0" precision="FP16" names="const_fold_opt__397">
					<dim>1</dim>
					<dim>32</dim>
					<dim>1</dim>
					<dim>1</dim>
				</port>
			</output>
		</layer>
		<layer id="38" name="const_fold_opt__397" type="Convert" version="opset1">
			<data destination_type="f32" />
			<rt_info>
				<attribute name="decompression" version="0" />
			</rt_info>
			<input>
				<port id="0" precision="FP16">
					<dim>1</dim>
					<dim>32</dim>
					<dim>1</dim>
					<dim>1</dim>
				</port>
			</input>
			<output>
				<port id="1" precision="FP32">
					<dim>1</dim>
					<dim>32</dim>
					<dim>1</dim>
					<dim>1</dim>
				</port>
			</output>
		</layer>
		<layer id="39" name="mobilenet_1.00_224_1/conv_dw_1_bn_1/batchnorm/add_1" type="Add" version="opset1">
			<data auto_broadcast="numpy" />
			<input>
				<port id="0" precision="FP32">
					<dim>1</dim>
					<dim>32</dim>
					<dim>112</dim>
					<dim>112</dim>
				</port>
				<port id="1" precision="FP32">
					<dim>1</dim>
					<dim>32</dim>
					<dim>1</dim>
					<dim>1</dim>
				</port>
			</input>
			<output>
				<port id="2" precision="FP32" names="mobilenet_1.00_224_1/conv_dw_1_bn_1/batchnorm/add_1:0">
					<dim>1</dim>
					<dim>32</dim>
					<dim>112</dim>
					<dim>112</dim>
				</port>
			</output>
		</layer>
		<layer id="40" name="mobilenet_1.00_224_1/conv_dw_1_relu_1/Relu6" type="Clamp" version="opset1">
			<data min="0" max="6" />
			<input>
				<port id="0" precision="FP32">
					<dim>1</dim>
					<dim>32</dim>
					<dim>112</dim>
					<dim>112</dim>
				</port>
			</input>
			<output>
				<port id="1" precision="FP32" names="mobilenet_1.00_224_1/conv_dw_1_relu_1/Relu6:0">
					<dim>1</dim>
					<dim>32</dim>
					<dim>112</dim>
					<dim>112</dim>
				</port>
			</output>
		</layer>
		<layer id="41" name="mobilenet_1.00_224_1/conv_dw_1_relu_1/Relu6/fq_output_0/input_low_compressed" type="Const" version="opset1">
			<data element_type="f16" shape="" offset="1572" size="2" />
			<output>
				<port id="0" precision="FP16" />
			</output>
		</layer>
		<layer id="42" name="mobilenet_1.00_224_1/conv_dw_1_relu_1/Relu6/fq_output_0/input_low" type="Convert" version="opset1">
			<data destination_type="f32" />
			<rt_info>
				<attribute name="decompression" version="0" />
			</rt_info>
			<input>
				<port id="0" precision="FP16" />
			</input>
			<output>
				<port id="1" precision="FP32" />
			</output>
		</layer>
		<layer id="43" name="mobilenet_1.00_224_1/conv_dw_1_relu_1/Relu6/fq_output_0/input_high_compressed" type="Const" version="opset1">
			<data element_type="f16" shape="" offset="1574" size="2" />
			<output>
				<port id="0" precision="FP16" />
			</output>
		</layer>
		<layer id="44" name="mobilenet_1.00_224_1/conv_dw_1_relu_1/Relu6/fq_output_0/input_high" type="Convert" version="opset1">
			<data destination_type="f32" />
			<rt_info>
				<attribute name="decompression" version="0" />
			</rt_info>
			<input>
				<port id="0" precision="FP16" />
			</input>
			<output>
				<port id="1" precision="FP32" />
			</output>
		</layer>
		<layer id="45" name="mobilenet_1.00_224_1/conv_dw_1_relu_1/Relu6/fq_output_0/output_low_compressed" type="Const" version="opset1">
			<data element_type="f16" shape="" offset="1572" size="2" />
			<output>
				<port id="0" precision="FP16" />
			</output>
		</layer>
		<layer id="46" name="mobilenet_1.00_224_1/conv_dw_1_relu_1/Relu6/fq_output_0/output_low" type="Convert" version="opset1">
			<data destination_type="f32" />
			<rt_info>
				<attribute name="decompression" version="0" />
			</rt_info>
			<input>
				<port id="0" precision="FP16" />
			</input>
			<output>
				<port id="1" precision="FP32" />
			</output>
		</layer>
		<layer id="47" name="mobilenet_1.00_224_1/conv_dw_1_relu_1/Relu6/fq_output_0/output_high_compressed" type="Const" version="opset1">
			<data element_type="f16" shape="" offset="1574" size="2" />
			<output>
				<port id="0" precision="FP16" />
			</output>
		</layer>
		<layer id="48" name="mobilenet_1.00_224_1/conv_dw_1_relu_1/Relu6/fq_output_0/output_high" type="Convert" version="opset1">
			<data destination_type="f32" />
			<rt_info>
				<attribute name="decompression" version="0" />
			</rt_info>
			<input>
				<port id="0" precision="FP16" />
			</input>
			<output>
				<port id="1" precision="FP32" />
			</output>
		</layer>
		<layer id="49" name="mobilenet_1.00_224_1/conv_dw_1_relu_1/Relu6/fq_output_0" type="FakeQuantize" version="opset1">
			<data levels="256" auto_broadcast="numpy" />
			<input>
				<port id="0" precision="FP32">
					<dim>1</dim>
					<dim>32</dim>
					<dim>112</dim>
					<dim>112</dim>
				</port>
				<port id="1" precision="FP32" />
				<port id="2" precision="FP32" />
				<port id="3" precision="FP32" />
				<port id="4" precision="FP32" />
			</input>
			<output>
				<port id="5" precision="FP32">
					<dim>1</dim>
					<dim>32</dim>
					<dim>112</dim>
					<dim>112</dim>
				</port>
			</output>
		</layer>
		<layer id="50" name="Constant_67904" type="Const" version="opset1">
			<data element_type="i8" shape="64, 32, 1, 1" offset="1576" size="2048" />
			<output>
				<port id="0" precision="I8">
					<dim>64</dim>
					<dim>32</dim>
					<dim>1</dim>
					<dim>1</dim>
				</port>
			</output>
		</layer>
		<layer id="51" name="Convert_67905" type="Convert" version="opset1">
			<data destination_type="f32" />
			<input>
				<port id="0" precision="I8">
					<dim>64</dim>
					<dim>32</dim>
					<dim>1</dim>
					<dim>1</dim>
				</port>
			</input>
			<output>
				<port id="1" precision="FP32">
					<dim>64</dim>
					<dim>32</dim>
					<dim>1</dim>
					<dim>1</dim>
				</port>
			</output>
		</layer>
		<layer id="52" name="Constant_67906_compressed" type="Const" version="opset1">
			<data element_type="f16" shape="64, 1, 1, 1" offset="3624" size="128" />
			<output>
				<port id="0" precision="FP16">
					<dim>64</dim>
					<dim>1</dim>
					<dim>1</dim>
					<dim>1</dim>
				</port>
			</output>
		</layer>
		<layer id="53" name="Constant_67906" type="Convert" version="opset1">
			<data destination_type="f32" />
			<rt_info>
				<attribute name="decompression" version="0" />
			</rt_info>
			<input>
				<port id="0" precision="FP16">
					<dim>64</dim>
					<dim>1</dim>
					<dim>1</dim>
					<dim>1</dim>
				</port>
			</input>
			<output>
				<port id="1" precision="FP32">
					<dim>64</dim>
					<dim>1</dim>
					<dim>1</dim>
					<dim>1</dim>
				</port>
			</output>
		</layer>
		<layer id="54" name="Conv__237/WithoutBiases/fq_weights_1" type="Multiply" version="opset1">
			<data auto_broadcast="numpy" />
			<input>
				<port id="0" precision="FP32">
					<dim>64</dim>
					<dim>32</dim>
					<dim>1</dim>
					<dim>1</dim>
				</port>
				<port id="1" precision="FP32">
					<dim>64</dim>
					<dim>1</dim>
					<dim>1</dim>
					<dim>1</dim>
				</port>
			</input>
			<output>
				<port id="2" precision="FP32">
					<dim>64</dim>
					<dim>32</dim>
					<dim>1</dim>
					<dim>1</dim>
				</port>
			</output>
		</layer>
		<layer id="55" name="Conv__237/WithoutBiases" type="Convolution" version="opset1">
			<data strides="1, 1" dilations="1, 1" pads_begin="0, 0" pads_end="0, 0" auto_pad="explicit" />
			<input>
				<port id="0" precision="FP32">
					<dim>1</dim>
					<dim>32</dim>
					<dim>112</dim>
					<dim>112</dim>
				</port>
				<port id="1" precision="FP32">
					<dim>64</dim>
					<dim>32</dim>
					<dim>1</dim>
					<dim>1</dim>
				</port>
			</input>
			<output>
				<port id="2" precision="FP32">
					<dim>1</dim>
					<dim>64</dim>
					<dim>112</dim>
					<dim>112</dim>
				</port>
			</output>
		</layer>
		<layer id="56" name="Reshape_161_compressed" type="Const" version="opset1">
			<data element_type="f16" shape="1, 64, 1, 1" offset="3752" size="128" />
			<output>
				<port id="0" precision="FP16">
					<dim>1</dim>
					<dim>64</dim>
					<dim>1</dim>
					<dim>1</dim>
				</port>
			</output>
		</layer>
		<layer id="57" name="Reshape_161" type="Convert" version="opset1">
			<data destination_type="f32" />
			<rt_info>
				<attribute name="decompression" version="0" />
			</rt_info>
			<input>
				<port id="0" precision="FP16">
					<dim>1</dim>
					<dim>64</dim>
					<dim>1</dim>
					<dim>1</dim>
				</port>
			</input>
			<output>
				<port id="1" precision="FP32">
					<dim>1</dim>
					<dim>64</dim>
					<dim>1</dim>
					<dim>1</dim>
				</port>
			</output>
		</layer>
		<layer id="58" name="Conv__237" type="Add" version="opset1">
			<data auto_broadcast="numpy" />
			<input>
				<port id="0" precision="FP32">
					<dim>1</dim>
					<dim>64</dim>
					<dim>112</dim>
					<dim>112</dim>
				</port>
				<port id="1" precision="FP32">
					<dim>1</dim>
					<dim>64</dim>
					<dim>1</dim>
					<dim>1</dim>
				</port>
			</input>
			<output>
				<port id="2" precision="FP32" names="Conv__237:0">
					<dim>1</dim>
					<dim>64</dim>
					<dim>112</dim>
					<dim>112</dim>
				</port>
			</output>
		</layer>
		<layer id="59" name="mobilenet_1.00_224_1/conv_pw_1_relu_1/Relu6" type="Clamp" version="opset1">
			<data min="0" max="6" />
			<input>
				<port id="0" precision="FP32">
					<dim>1</dim>
					<dim>64</dim>
					<dim>112</dim>
					<dim>112</dim>
				</port>
			</input>
			<output>
				<port id="1" precision="FP32" names="mobilenet_1.00_224_1/conv_pw_1_relu_1/Relu6:0">
					<dim>1</dim>
					<dim>64</dim>
					<dim>112</dim>
					<dim>112</dim>
				</port>
			</output>
		</layer>
		<layer id="60" name="mobilenet_1.00_224_1/conv_pw_1_relu_1/Relu6/fq_output_0/input_low_compressed" type="Const" version="opset1">
			<data element_type="f16" shape="1, 64, 1, 1" offset="3880" size="128" />
			<output>
				<port id="0" precision="FP16">
					<dim>1</dim>
					<dim>64</dim>
					<dim>1</dim>
					<dim>1</dim>
				</port>
			</output>
		</layer>
		<layer id="61" name="mobilenet_1.00_224_1/conv_pw_1_relu_1/Relu6/fq_output_0/input_low" type="Convert" version="opset1">
			<data destination_type="f32" />
			<rt_info>
				<attribute name="decompression" version="0" />
			</rt_info>
			<input>
				<port id="0" precision="FP16">
					<dim>1</dim>
					<dim>64</dim>
					<dim>1</dim>
					<dim>1</dim>
				</port>
			</input>
			<output>
				<port id="1" precision="FP32">
					<dim>1</dim>
					<dim>64</dim>
					<dim>1</dim>
					<dim>1</dim>
				</port>
			</output>
		</layer>
		<layer id="62" name="mobilenet_1.00_224_1/conv_pw_1_relu_1/Relu6/fq_output_0/input_high_compressed" type="Const" version="opset1">
			<data element_type="f16" shape="1, 64, 1, 1" offset="4008" size="128" />
			<output>
				<port id="0" precision="FP16">
					<dim>1</dim>
					<dim>64</dim>
					<dim>1</dim>
					<dim>1</dim>
				</port>
			</output>
		</layer>
		<layer id="63" name="mobilenet_1.00_224_1/conv_pw_1_relu_1/Relu6/fq_output_0/input_high" type="Convert" version="opset1">
			<data destination_type="f32" />
			<rt_info>
				<attribute name="decompression" version="0" />
			</rt_info>
			<input>
				<port id="0" precision="FP16">
					<dim>1</dim>
					<dim>64</dim>
					<dim>1</dim>
					<dim>1</dim>
				</port>
			</input>
			<output>
				<port id="1" precision="FP32">
					<dim>1</dim>
					<dim>64</dim>
					<dim>1</dim>
					<dim>1</dim>
				</port>
			</output>
		</layer>
		<layer id="64" name="mobilenet_1.00_224_1/conv_pw_1_relu_1/Relu6/fq_output_0/output_low_compressed" type="Const" version="opset1">
			<data element_type="f16" shape="1, 64, 1, 1" offset="3880" size="128" />
			<output>
				<port id="0" precision="FP16">
					<dim>1</dim>
					<dim>64</dim>
					<dim>1</dim>
					<dim>1</dim>
				</port>
			</output>
		</layer>
		<layer id="65" name="mobilenet_1.00_224_1/conv_pw_1_relu_1/Relu6/fq_output_0/output_low" type="Convert" version="opset1">
			<data destination_type="f32" />
			<rt_info>
				<attribute name="decompression" version="0" />
			</rt_info>
			<input>
				<port id="0" precision="FP16">
					<dim>1</dim>
					<dim>64</dim>
					<dim>1</dim>
					<dim>1</dim>
				</port>
			</input>
			<output>
				<port id="1" precision="FP32">
					<dim>1</dim>
					<dim>64</dim>
					<dim>1</dim>
					<dim>1</dim>
				</port>
			</output>
		</layer>
		<layer id="66" name="mobilenet_1.00_224_1/conv_pw_1_relu_1/Relu6/fq_output_0/output_high_compressed" type="Const" version="opset1">
			<data element_type="f16" shape="1, 64, 1, 1" offset="4008" size="128" />
			<output>
				<port id="0" precision="FP16">
					<dim>1</dim>
					<dim>64</dim>
					<dim>1</dim>
					<dim>1</dim>
				</port>
			</output>
		</layer>
		<layer id="67" name="mobilenet_1.00_224_1/conv_pw_1_relu_1/Relu6/fq_output_0/output_high" type="Convert" version="opset1">
			<data destination_type="f32" />
			<rt_info>
				<attribute name="decompression" version="0" />
			</rt_info>
			<input>
				<port id="0" precision="FP16">
					<dim>1</dim>
					<dim>64</dim>
					<dim>1</dim>
					<dim>1</dim>
				</port>
			</input>
			<output>
				<port id="1" precision="FP32">
					<dim>1</dim>
					<dim>64</dim>
					<dim>1</dim>
					<dim>1</dim>
				</port>
			</output>
		</layer>
		<layer id="68" name="mobilenet_1.00_224_1/conv_pw_1_relu_1/Relu6/fq_output_0" type="FakeQuantize" version="opset1">
			<data levels="256" auto_broadcast="numpy" />
			<input>
				<port id="0" precision="FP32">
					<dim>1</dim>
					<dim>64</dim>
					<dim>112</dim>
					<dim>112</dim>
				</port>
				<port id="1" precision="FP32">
					<dim>1</dim>
					<dim>64</dim>
					<dim>1</dim>
					<dim>1</dim>
				</port>
				<port id="2" precision="FP32">
					<dim>1</dim>
					<dim>64</dim>
					<dim>1</dim>
					<dim>1</dim>
				</port>
				<port id="3" precision="FP32">
					<dim>1</dim>
					<dim>64</dim>
					<dim>1</dim>
					<dim>1</dim>
				</port>
				<port id="4" precision="FP32">
					<dim>1</dim>
					<dim>64</dim>
					<dim>1</dim>
					<dim>1</dim>
				</port>
			</input>
			<output>
				<port id="5" precision="FP32">
					<dim>1</dim>
					<dim>64</dim>
					<dim>112</dim>
					<dim>112</dim>
				</port>
			</output>
		</layer>
		<layer id="69" name="Constant_67908" type="Const" version="opset1">
			<data element_type="i8" shape="64, 1, 1, 3, 3" offset="4136" size="576" />
			<output>
				<port id="0" precision="I8">
					<dim>64</dim>
					<dim>1</dim>
					<dim>1</dim>
					<dim>3</dim>
					<dim>3</dim>
				</port>
			</output>
		</layer>
		<layer id="70" name="Convert_67909" type="Convert" version="opset1">
			<data destination_type="f32" />
			<input>
				<port id="0" precision="I8">
					<dim>64</dim>
					<dim>1</dim>
					<dim>1</dim>
					<dim>3</dim>
					<dim>3</dim>
				</port>
			</input>
			<output>
				<port id="1" precision="FP32">
					<dim>64</dim>
					<dim>1</dim>
					<dim>1</dim>
					<dim>3</dim>
					<dim>3</dim>
				</port>
			</output>
		</layer>
		<layer id="71" name="Constant_67910_compressed" type="Const" version="opset1">
			<data element_type="f16" shape="64, 1, 1, 1, 1" offset="4712" size="128" />
			<output>
				<port id="0" precision="FP16">
					<dim>64</dim>
					<dim>1</dim>
					<dim>1</dim>
					<dim>1</dim>
					<dim>1</dim>
				</port>
			</output>
		</layer>
		<layer id="72" name="Constant_67910" type="Convert" version="opset1">
			<data destination_type="f32" />
			<rt_info>
				<attribute name="decompression" version="0" />
			</rt_info>
			<input>
				<port id="0" precision="FP16">
					<dim>64</dim>
					<dim>1</dim>
					<dim>1</dim>
					<dim>1</dim>
					<dim>1</dim>
				</port>
			</input>
			<output>
				<port id="1" precision="FP32">
					<dim>64</dim>
					<dim>1</dim>
					<dim>1</dim>
					<dim>1</dim>
					<dim>1</dim>
				</port>
			</output>
		</layer>
		<layer id="73" name="mobilenet_1.00_224_1/conv_dw_2_bn_1/batchnorm/mul_1/fq_weights_1" type="Multiply" version="opset1">
			<data auto_broadcast="numpy" />
			<input>
				<port id="0" precision="FP32">
					<dim>64</dim>
					<dim>1</dim>
					<dim>1</dim>
					<dim>3</dim>
					<dim>3</dim>
				</port>
				<port id="1" precision="FP32">
					<dim>64</dim>
					<dim>1</dim>
					<dim>1</dim>
					<dim>1</dim>
					<dim>1</dim>
				</port>
			</input>
			<output>
				<port id="2" precision="FP32">
					<dim>64</dim>
					<dim>1</dim>
					<dim>1</dim>
					<dim>3</dim>
					<dim>3</dim>
				</port>
			</output>
		</layer>
		<layer id="74" name="mobilenet_1.00_224_1/conv_dw_2_bn_1/batchnorm/mul_1" type="GroupConvolution" version="opset1">
			<data strides="2, 2" pads_begin="0, 0" pads_end="1, 1" dilations="1, 1" auto_pad="explicit" />
			<input>
				<port id="0" precision="FP32">
					<dim>1</dim>
					<dim>64</dim>
					<dim>112</dim>
					<dim>112</dim>
				</port>
				<port id="1" precision="FP32">
					<dim>64</dim>
					<dim>1</dim>
					<dim>1</dim>
					<dim>3</dim>
					<dim>3</dim>
				</port>
			</input>
			<output>
				<port id="2" precision="FP32" names="mobilenet_1.00_224_1/conv_dw_2_1/depthwise:0,mobilenet_1.00_224_1/conv_dw_2_bn_1/batchnorm/mul_1:0">
					<dim>1</dim>
					<dim>64</dim>
					<dim>56</dim>
					<dim>56</dim>
				</port>
			</output>
		</layer>
		<layer id="75" name="const_fold_opt__419_compressed" type="Const" version="opset1">
			<data element_type="f16" shape="1, 64, 1, 1" offset="4840" size="128" />
			<output>
				<port id="0" precision="FP16" names="const_fold_opt__419">
					<dim>1</dim>
					<dim>64</dim>
					<dim>1</dim>
					<dim>1</dim>
				</port>
			</output>
		</layer>
		<layer id="76" name="const_fold_opt__419" type="Convert" version="opset1">
			<data destination_type="f32" />
			<rt_info>
				<attribute name="decompression" version="0" />
			</rt_info>
			<input>
				<port id="0" precision="FP16">
					<dim>1</dim>
					<dim>64</dim>
					<dim>1</dim>
					<dim>1</dim>
				</port>
			</input>
			<output>
				<port id="1" precision="FP32">
					<dim>1</dim>
					<dim>64</dim>
					<dim>1</dim>
					<dim>1</dim>
				</port>
			</output>
		</layer>
		<layer id="77" name="mobilenet_1.00_224_1/conv_dw_2_bn_1/batchnorm/add_1" type="Add" version="opset1">
			<data auto_broadcast="numpy" />
			<input>
				<port id="0" precision="FP32">
					<dim>1</dim>
					<dim>64</dim>
					<dim>56</dim>
					<dim>56</dim>
				</port>
				<port id="1" precision="FP32">
					<dim>1</dim>
					<dim>64</dim>
					<dim>1</dim>
					<dim>1</dim>
				</port>
			</input>
			<output>
				<port id="2" precision="FP32" names="mobilenet_1.00_224_1/conv_dw_2_bn_1/batchnorm/add_1:0">
					<dim>1</dim>
					<dim>64</dim>
					<dim>56</dim>
					<dim>56</dim>
				</port>
			</output>
		</layer>
		<layer id="78" name="mobilenet_1.00_224_1/conv_dw_2_relu_1/Relu6" type="Clamp" version="opset1">
			<data min="0" max="6" />
			<input>
				<port id="0" precision="FP32">
					<dim>1</dim>
					<dim>64</dim>
					<dim>56</dim>
					<dim>56</dim>
				</port>
			</input>
			<output>
				<port id="1" precision="FP32" names="mobilenet_1.00_224_1/conv_dw_2_relu_1/Relu6:0">
					<dim>1</dim>
					<dim>64</dim>
					<dim>56</dim>
					<dim>56</dim>
				</port>
			</output>
		</layer>
		<layer id="79" name="mobilenet_1.00_224_1/conv_dw_2_relu_1/Relu6/fq_output_0/input_low_compressed" type="Const" version="opset1">
			<data element_type="f16" shape="" offset="1572" size="2" />
			<output>
				<port id="0" precision="FP16" />
			</output>
		</layer>
		<layer id="80" name="mobilenet_1.00_224_1/conv_dw_2_relu_1/Relu6/fq_output_0/input_low" type="Convert" version="opset1">
			<data destination_type="f32" />
			<rt_info>
				<attribute name="decompression" version="0" />
			</rt_info>
			<input>
				<port id="0" precision="FP16" />
			</input>
			<output>
				<port id="1" precision="FP32" />
			</output>
		</layer>
		<layer id="81" name="mobilenet_1.00_224_1/conv_dw_2_relu_1/Relu6/fq_output_0/input_high_compressed" type="Const" version="opset1">
			<data element_type="f16" shape="" offset="1574" size="2" />
			<output>
				<port id="0" precision="FP16" />
			</output>
		</layer>
		<layer id="82" name="mobilenet_1.00_224_1/conv_dw_2_relu_1/Relu6/fq_output_0/input_high" type="Convert" version="opset1">
			<data destination_type="f32" />
			<rt_info>
				<attribute name="decompression" version="0" />
			</rt_info>
			<input>
				<port id="0" precision="FP16" />
			</input>
			<output>
				<port id="1" precision="FP32" />
			</output>
		</layer>
		<layer id="83" name="mobilenet_1.00_224_1/conv_dw_2_relu_1/Relu6/fq_output_0/output_low_compressed" type="Const" version="opset1">
			<data element_type="f16" shape="" offset="1572" size="2" />
			<output>
				<port id="0" precision="FP16" />
			</output>
		</layer>
		<layer id="84" name="mobilenet_1.00_224_1/conv_dw_2_relu_1/Relu6/fq_output_0/output_low" type="Convert" version="opset1">
			<data destination_type="f32" />
			<rt_info>
				<attribute name="decompression" version="0" />
			</rt_info>
			<input>
				<port id="0" precision="FP16" />
			</input>
			<output>
				<port id="1" precision="FP32" />
			</output>
		</layer>
		<layer id="85" name="mobilenet_1.00_224_1/conv_dw_2_relu_1/Relu6/fq_output_0/output_high_compressed" type="Const" version="opset1">
			<data element_type="f16" shape="" offset="1574" size="2" />
			<output>
				<port id="0" precision="FP16" />
			</output>
		</layer>
		<layer id="86" name="mobilenet_1.00_224_1/conv_dw_2_relu_1/Relu6/fq_output_0/output_high" type="Convert" version="opset1">
			<data destination_type="f32" />
			<rt_info>
				<attribute name="decompression" version="0" />
			</rt_info>
			<input>
				<port id="0" precision="FP16" />
			</input>
			<output>
				<port id="1" precision="FP32" />
			</output>
		</layer>
		<layer id="87" name="mobilenet_1.00_224_1/conv_dw_2_relu_1/Relu6/fq_output_0" type="FakeQuantize" version="opset1">
			<data levels="256" auto_broadcast="numpy" />
			<input>
				<port id="0" precision="FP32">
					<dim>1</dim>
					<dim>64</dim>
					<dim>56</dim>
					<dim>56</dim>
				</port>
				<port id="1" precision="FP32" />
				<port id="2" precision="FP32" />
				<port id="3" precision="FP32" />
				<port id="4" precision="FP32" />
			</input>
			<output>
				<port id="5" precision="FP32">
					<dim>1</dim>
					<dim>64</dim>
					<dim>56</dim>
					<dim>56</dim>
				</port>
			</output>
		</layer>
		<layer id="88" name="Constant_67912" type="Const" version="opset1">
			<data element_type="i8" shape="128, 64, 1, 1" offset="4968" size="8192" />
			<output>
				<port id="0" precision="I8">
					<dim>128</dim>
					<dim>64</dim>
					<dim>1</dim>
					<dim>1</dim>
				</port>
			</output>
		</layer>
		<layer id="89" name="Convert_67913" type="Convert" version="opset1">
			<data destination_type="f32" />
			<input>
				<port id="0" precision="I8">
					<dim>128</dim>
					<dim>64</dim>
					<dim>1</dim>
					<dim>1</dim>
				</port>
			</input>
			<output>
				<port id="1" precision="FP32">
					<dim>128</dim>
					<dim>64</dim>
					<dim>1</dim>
					<dim>1</dim>
				</port>
			</output>
		</layer>
		<layer id="90" name="Constant_67914_compressed" type="Const" version="opset1">
			<data element_type="f16" shape="128, 1, 1, 1" offset="13160" size="256" />
			<output>
				<port id="0" precision="FP16">
					<dim>128</dim>
					<dim>1</dim>
					<dim>1</dim>
					<dim>1</dim>
				</port>
			</output>
		</layer>
		<layer id="91" name="Constant_67914" type="Convert" version="opset1">
			<data destination_type="f32" />
			<rt_info>
				<attribute name="decompression" version="0" />
			</rt_info>
			<input>
				<port id="0" precision="FP16">
					<dim>128</dim>
					<dim>1</dim>
					<dim>1</dim>
					<dim>1</dim>
				</port>
			</input>
			<output>
				<port id="1" precision="FP32">
					<dim>128</dim>
					<dim>1</dim>
					<dim>1</dim>
					<dim>1</dim>
				</port>
			</output>
		</layer>
		<layer id="92" name="Conv__247/WithoutBiases/fq_weights_1" type="Multiply" version="opset1">
			<data auto_broadcast="numpy" />
			<input>
				<port id="0" precision="FP32">
					<dim>128</dim>
					<dim>64</dim>
					<dim>1</dim>
					<dim>1</dim>
				</port>
				<port id="1" precision="FP32">
					<dim>128</dim>
					<dim>1</dim>
					<dim>1</dim>
					<dim>1</dim>
				</port>
			</input>
			<output>
				<port id="2" precision="FP32">
					<dim>128</dim>
					<dim>64</dim>
					<dim>1</dim>
					<dim>1</dim>
				</port>
			</output>
		</layer>
		<layer id="93" name="Conv__247/WithoutBiases" type="Convolution" version="opset1">
			<data strides="1, 1" dilations="1, 1" pads_begin="0, 0" pads_end="0, 0" auto_pad="explicit" />
			<input>
				<port id="0" precision="FP32">
					<dim>1</dim>
					<dim>64</dim>
					<dim>56</dim>
					<dim>56</dim>
				</port>
				<port id="1" precision="FP32">
					<dim>128</dim>
					<dim>64</dim>
					<dim>1</dim>
					<dim>1</dim>
				</port>
			</input>
			<output>
				<port id="2" precision="FP32">
					<dim>1</dim>
					<dim>128</dim>
					<dim>56</dim>
					<dim>56</dim>
				</port>
			</output>
		</layer>
		<layer id="94" name="Reshape_236_compressed" type="Const" version="opset1">
			<data element_type="f16" shape="1, 128, 1, 1" offset="13416" size="256" />
			<output>
				<port id="0" precision="FP16">
					<dim>1</dim>
					<dim>128</dim>
					<dim>1</dim>
					<dim>1</dim>
				</port>
			</output>
		</layer>
		<layer id="95" name="Reshape_236" type="Convert" version="opset1">
			<data destination_type="f32" />
			<rt_info>
				<attribute name="decompression" version="0" />
			</rt_info>
			<input>
				<port id="0" precision="FP16">
					<dim>1</dim>
					<dim>128</dim>
					<dim>1</dim>
					<dim>1</dim>
				</port>
			</input>
			<output>
				<port id="1" precision="FP32">
					<dim>1</dim>
					<dim>128</dim>
					<dim>1</dim>
					<dim>1</dim>
				</port>
			</output>
		</layer>
		<layer id="96" name="Conv__247" type="Add" version="opset1">
			<data auto_broadcast="numpy" />
			<input>
				<port id="0" precision="FP32">
					<dim>1</dim>
					<dim>128</dim>
					<dim>56</dim>
					<dim>56</dim>
				</port>
				<port id="1" precision="FP32">
					<dim>1</dim>
					<dim>128</dim>
					<dim>1</dim>
					<dim>1</dim>
				</port>
			</input>
			<output>
				<port id="2" precision="FP32" names="Conv__247:0">
					<dim>1</dim>
					<dim>128</dim>
					<dim>56</dim>
					<dim>56</dim>
				</port>
			</output>
		</layer>
		<layer id="97" name="mobilenet_1.00_224_1/conv_pw_2_relu_1/Relu6" type="Clamp" version="opset1">
			<data min="0" max="6" />
			<input>
				<port id="0" precision="FP32">
					<dim>1</dim>
					<dim>128</dim>
					<dim>56</dim>
					<dim>56</dim>
				</port>
			</input>
			<output>
				<port id="1" precision="FP32" names="mobilenet_1.00_224_1/conv_pw_2_relu_1/Relu6:0">
					<dim>1</dim>
					<dim>128</dim>
					<dim>56</dim>
					<dim>56</dim>
				</port>
			</output>
		</layer>
		<layer id="98" name="mobilenet_1.00_224_1/conv_pw_2_relu_1/Relu6/fq_output_0/input_low_compressed" type="Const" version="opset1">
			<data element_type="f16" shape="1, 128, 1, 1" offset="13672" size="256" />
			<output>
				<port id="0" precision="FP16">
					<dim>1</dim>
					<dim>128</dim>
					<dim>1</dim>
					<dim>1</dim>
				</port>
			</output>
		</layer>
		<layer id="99" name="mobilenet_1.00_224_1/conv_pw_2_relu_1/Relu6/fq_output_0/input_low" type="Convert" version="opset1">
			<data destination_type="f32" />
			<rt_info>
				<attribute name="decompression" version="0" />
			</rt_info>
			<input>
				<port id="0" precision="FP16">
					<dim>1</dim>
					<dim>128</dim>
					<dim>1</dim>
					<dim>1</dim>
				</port>
			</input>
			<output>
				<port id="1" precision="FP32">
					<dim>1</dim>
					<dim>128</dim>
					<dim>1</dim>
					<dim>1</dim>
				</port>
			</output>
		</layer>
		<layer id="100" name="mobilenet_1.00_224_1/conv_pw_2_relu_1/Relu6/fq_output_0/input_high_compressed" type="Const" version="opset1">
			<data element_type="f16" shape="1, 128, 1, 1" offset="13928" size="256" />
			<output>
				<port id="0" precision="FP16">
					<dim>1</dim>
					<dim>128</dim>
					<dim>1</dim>
					<dim>1</dim>
				</port>
			</output>
		</layer>
		<layer id="101" name="mobilenet_1.00_224_1/conv_pw_2_relu_1/Relu6/fq_output_0/input_high" type="Convert" version="opset1">
			<data destination_type="f32" />
			<rt_info>
				<attribute name="decompression" version="0" />
			</rt_info>
			<input>
				<port id="0" precision="FP16">
					<dim>1</dim>
					<dim>128</dim>
					<dim>1</dim>
					<dim>1</dim>
				</port>
			</input>
			<output>
				<port id="1" precision="FP32">
					<dim>1</dim>
					<dim>128</dim>
					<dim>1</dim>
					<dim>1</dim>
				</port>
			</output>
		</layer>
		<layer id="102" name="mobilenet_1.00_224_1/conv_pw_2_relu_1/Relu6/fq_output_0/output_low_compressed" type="Const" version="opset1">
			<data element_type="f16" shape="1, 128, 1, 1" offset="13672" size="256" />
			<output>
				<port id="0" precision="FP16">
					<dim>1</dim>
					<dim>128</dim>
					<dim>1</dim>
					<dim>1</dim>
				</port>
			</output>
		</layer>
		<layer id="103" name="mobilenet_1.00_224_1/conv_pw_2_relu_1/Relu6/fq_output_0/output_low" type="Convert" version="opset1">
			<data destination_type="f32" />
			<rt_info>
				<attribute name="decompression" version="0" />
			</rt_info>
			<input>
				<port id="0" precision="FP16">
					<dim>1</dim>
					<dim>128</dim>
					<dim>1</dim>
					<dim>1</dim>
				</port>
			</input>
			<output>
				<port id="1" precision="FP32">
					<dim>1</dim>
					<dim>128</dim>
					<dim>1</dim>
					<dim>1</dim>
				</port>
			</output>
		</layer>
		<layer id="104" name="mobilenet_1.00_224_1/conv_pw_2_relu_1/Relu6/fq_output_0/output_high_compressed" type="Const" version="opset1">
			<data element_type="f16" shape="1, 128, 1, 1" offset="13928" size="256" />
			<output>
				<port id="0" precision="FP16">
					<dim>1</dim>
					<dim>128</dim>
					<dim>1</dim>
					<dim>1</dim>
				</port>
			</output>
		</layer>
		<layer id="105" name="mobilenet_1.00_224_1/conv_pw_2_relu_1/Relu6/fq_output_0/output_high" type="Convert" version="opset1">
			<data destination_type="f32" />
			<rt_info>
				<attribute name="decompression" version="0" />
			</rt_info>
			<input>
				<port id="0" precision="FP16">
					<dim>1</dim>
					<dim>128</dim>
					<dim>1</dim>
					<dim>1</dim>
				</port>
			</input>
			<output>
				<port id="1" precision="FP32">
					<dim>1</dim>
					<dim>128</dim>
					<dim>1</dim>
					<dim>1</dim>
				</port>
			</output>
		</layer>
		<layer id="106" name="mobilenet_1.00_224_1/conv_pw_2_relu_1/Relu6/fq_output_0" type="FakeQuantize" version="opset1">
			<data levels="256" auto_broadcast="numpy" />
			<input>
				<port id="0" precision="FP32">
					<dim>1</dim>
					<dim>128</dim>
					<dim>56</dim>
					<dim>56</dim>
				</port>
				<port id="1" precision="FP32">
					<dim>1</dim>
					<dim>128</dim>
					<dim>1</dim>
					<dim>1</dim>
				</port>
				<port id="2" precision="FP32">
					<dim>1</dim>
					<dim>128</dim>
					<dim>1</dim>
					<dim>1</dim>
				</port>
				<port id="3" precision="FP32">
					<dim>1</dim>
					<dim>128</dim>
					<dim>1</dim>
					<dim>1</dim>
				</port>
				<port id="4" precision="FP32">
					<dim>1</dim>
					<dim>128</dim>
					<dim>1</dim>
					<dim>1</dim>
				</port>
			</input>
			<output>
				<port id="5" precision="FP32">
					<dim>1</dim>
					<dim>128</dim>
					<dim>56</dim>
					<dim>56</dim>
				</port>
			</output>
		</layer>
		<layer id="107" name="Constant_67916" type="Const" version="opset1">
			<data element_type="i8" shape="128, 1, 1, 3, 3" offset="14184" size="1152" />
			<output>
				<port id="0" precision="I8">
					<dim>128</dim>
					<dim>1</dim>
					<dim>1</dim>
					<dim>3</dim>
					<dim>3</dim>
				</port>
			</output>
		</layer>
		<layer id="108" name="Convert_67917" type="Convert" version="opset1">
			<data destination_type="f32" />
			<input>
				<port id="0" precision="I8">
					<dim>128</dim>
					<dim>1</dim>
					<dim>1</dim>
					<dim>3</dim>
					<dim>3</dim>
				</port>
			</input>
			<output>
				<port id="1" precision="FP32">
					<dim>128</dim>
					<dim>1</dim>
					<dim>1</dim>
					<dim>3</dim>
					<dim>3</dim>
				</port>
			</output>
		</layer>
		<layer id="109" name="Constant_67918_compressed" type="Const" version="opset1">
			<data element_type="f16" shape="128, 1, 1, 1, 1" offset="15336" size="256" />
			<output>
				<port id="0" precision="FP16">
					<dim>128</dim>
					<dim>1</dim>
					<dim>1</dim>
					<dim>1</dim>
					<dim>1</dim>
				</port>
			</output>
		</layer>
		<layer id="110" name="Constant_67918" type="Convert" version="opset1">
			<data destination_type="f32" />
			<rt_info>
				<attribute name="decompression" version="0" />
			</rt_info>
			<input>
				<port id="0" precision="FP16">
					<dim>128</dim>
					<dim>1</dim>
					<dim>1</dim>
					<dim>1</dim>
					<dim>1</dim>
				</port>
			</input>
			<output>
				<port id="1" precision="FP32">
					<dim>128</dim>
					<dim>1</dim>
					<dim>1</dim>
					<dim>1</dim>
					<dim>1</dim>
				</port>
			</output>
		</layer>
		<layer id="111" name="mobilenet_1.00_224_1/conv_dw_3_bn_1/batchnorm/mul_1/fq_weights_1" type="Multiply" version="opset1">
			<data auto_broadcast="numpy" />
			<input>
				<port id="0" precision="FP32">
					<dim>128</dim>
					<dim>1</dim>
					<dim>1</dim>
					<dim>3</dim>
					<dim>3</dim>
				</port>
				<port id="1" precision="FP32">
					<dim>128</dim>
					<dim>1</dim>
					<dim>1</dim>
					<dim>1</dim>
					<dim>1</dim>
				</port>
			</input>
			<output>
				<port id="2" precision="FP32">
					<dim>128</dim>
					<dim>1</dim>
					<dim>1</dim>
					<dim>3</dim>
					<dim>3</dim>
				</port>
			</output>
		</layer>
		<layer id="112" name="mobilenet_1.00_224_1/conv_dw_3_bn_1/batchnorm/mul_1" type="GroupConvolution" version="opset1">
			<data strides="1, 1" pads_begin="1, 1" pads_end="1, 1" dilations="1, 1" auto_pad="explicit" />
			<input>
				<port id="0" precision="FP32">
					<dim>1</dim>
					<dim>128</dim>
					<dim>56</dim>
					<dim>56</dim>
				</port>
				<port id="1" precision="FP32">
					<dim>128</dim>
					<dim>1</dim>
					<dim>1</dim>
					<dim>3</dim>
					<dim>3</dim>
				</port>
			</input>
			<output>
				<port id="2" precision="FP32" names="mobilenet_1.00_224_1/conv_dw_3_1/depthwise:0,mobilenet_1.00_224_1/conv_dw_3_bn_1/batchnorm/mul_1:0">
					<dim>1</dim>
					<dim>128</dim>
					<dim>56</dim>
					<dim>56</dim>
				</port>
			</output>
		</layer>
		<layer id="113" name="const_fold_opt__424_compressed" type="Const" version="opset1">
			<data element_type="f16" shape="1, 128, 1, 1" offset="15592" size="256" />
			<output>
				<port id="0" precision="FP16" names="const_fold_opt__424">
					<dim>1</dim>
					<dim>128</dim>
					<dim>1</dim>
					<dim>1</dim>
				</port>
			</output>
		</layer>
		<layer id="114" name="const_fold_opt__424" type="Convert" version="opset1">
			<data destination_type="f32" />
			<rt_info>
				<attribute name="decompression" version="0" />
			</rt_info>
			<input>
				<port id="0" precision="FP16">
					<dim>1</dim>
					<dim>128</dim>
					<dim>1</dim>
					<dim>1</dim>
				</port>
			</input>
			<output>
				<port id="1" precision="FP32">
					<dim>1</dim>
					<dim>128</dim>
					<dim>1</dim>
					<dim>1</dim>
				</port>
			</output>
		</layer>
		<layer id="115" name="mobilenet_1.00_224_1/conv_dw_3_bn_1/batchnorm/add_1" type="Add" version="opset1">
			<data auto_broadcast="numpy" />
			<input>
				<port id="0" precision="FP32">
					<dim>1</dim>
					<dim>128</dim>
					<dim>56</dim>
					<dim>56</dim>
				</port>
				<port id="1" precision="FP32">
					<dim>1</dim>
					<dim>128</dim>
					<dim>1</dim>
					<dim>1</dim>
				</port>
			</input>
			<output>
				<port id="2" precision="FP32" names="mobilenet_1.00_224_1/conv_dw_3_bn_1/batchnorm/add_1:0">
					<dim>1</dim>
					<dim>128</dim>
					<dim>56</dim>
					<dim>56</dim>
				</port>
			</output>
		</layer>
		<layer id="116" name="mobilenet_1.00_224_1/conv_dw_3_relu_1/Relu6" type="Clamp" version="opset1">
			<data min="0" max="6" />
			<input>
				<port id="0" precision="FP32">
					<dim>1</dim>
					<dim>128</dim>
					<dim>56</dim>
					<dim>56</dim>
				</port>
			</input>
			<output>
				<port id="1" precision="FP32" names="mobilenet_1.00_224_1/conv_dw_3_relu_1/Relu6:0">
					<dim>1</dim>
					<dim>128</dim>
					<dim>56</dim>
					<dim>56</dim>
				</port>
			</output>
		</layer>
		<layer id="117" name="mobilenet_1.00_224_1/conv_dw_3_relu_1/Relu6/fq_output_0/input_low_compressed" type="Const" version="opset1">
			<data element_type="f16" shape="" offset="1572" size="2" />
			<output>
				<port id="0" precision="FP16" />
			</output>
		</layer>
		<layer id="118" name="mobilenet_1.00_224_1/conv_dw_3_relu_1/Relu6/fq_output_0/input_low" type="Convert" version="opset1">
			<data destination_type="f32" />
			<rt_info>
				<attribute name="decompression" version="0" />
			</rt_info>
			<input>
				<port id="0" precision="FP16" />
			</input>
			<output>
				<port id="1" precision="FP32" />
			</output>
		</layer>
		<layer id="119" name="mobilenet_1.00_224_1/conv_dw_3_relu_1/Relu6/fq_output_0/input_high_compressed" type="Const" version="opset1">
			<data element_type="f16" shape="" offset="1574" size="2" />
			<output>
				<port id="0" precision="FP16" />
			</output>
		</layer>
		<layer id="120" name="mobilenet_1.00_224_1/conv_dw_3_relu_1/Relu6/fq_output_0/input_high" type="Convert" version="opset1">
			<data destination_type="f32" />
			<rt_info>
				<attribute name="decompression" version="0" />
			</rt_info>
			<input>
				<port id="0" precision="FP16" />
			</input>
			<output>
				<port id="1" precision="FP32" />
			</output>
		</layer>
		<layer id="121" name="mobilenet_1.00_224_1/conv_dw_3_relu_1/Relu6/fq_output_0/output_low_compressed" type="Const" version="opset1">
			<data element_type="f16" shape="" offset="1572" size="2" />
			<output>
				<port id="0" precision="FP16" />
			</output>
		</layer>
		<layer id="122" name="mobilenet_1.00_224_1/conv_dw_3_relu_1/Relu6/fq_output_0/output_low" type="Convert" version="opset1">
			<data destination_type="f32" />
			<rt_info>
				<attribute name="decompression" version="0" />
			</rt_info>
			<input>
				<port id="0" precision="FP16" />
			</input>
			<output>
				<port id="1" precision="FP32" />
			</output>
		</layer>
		<layer id="123" name="mobilenet_1.00_224_1/conv_dw_3_relu_1/Relu6/fq_output_0/output_high_compressed" type="Const" version="opset1">
			<data element_type="f16" shape="" offset="1574" size="2" />
			<output>
				<port id="0" precision="FP16" />
			</output>
		</layer>
		<layer id="124" name="mobilenet_1.00_224_1/conv_dw_3_relu_1/Relu6/fq_output_0/output_high" type="Convert" version="opset1">
			<data destination_type="f32" />
			<rt_info>
				<attribute name="decompression" version="0" />
			</rt_info>
			<input>
				<port id="0" precision="FP16" />
			</input>
			<output>
				<port id="1" precision="FP32" />
			</output>
		</layer>
		<layer id="125" name="mobilenet_1.00_224_1/conv_dw_3_relu_1/Relu6/fq_output_0" type="FakeQuantize" version="opset1">
			<data levels="256" auto_broadcast="numpy" />
			<input>
				<port id="0" precision="FP32">
					<dim>1</dim>
					<dim>128</dim>
					<dim>56</dim>
					<dim>56</dim>
				</port>
				<port id="1" precision="FP32" />
				<port id="2" precision="FP32" />
				<port id="3" precision="FP32" />
				<port id="4" precision="FP32" />
			</input>
			<output>
				<port id="5" precision="FP32">
					<dim>1</dim>
					<dim>128</dim>
					<dim>56</dim>
					<dim>56</dim>
				</port>
			</output>
		</layer>
		<layer id="126" name="Constant_67920" type="Const" version="opset1">
			<data element_type="i8" shape="128, 128, 1, 1" offset="15848" size="16384" />
			<output>
				<port id="0" precision="I8">
					<dim>128</dim>
					<dim>128</dim>
					<dim>1</dim>
					<dim>1</dim>
				</port>
			</output>
		</layer>
		<layer id="127" name="Convert_67921" type="Convert" version="opset1">
			<data destination_type="f32" />
			<input>
				<port id="0" precision="I8">
					<dim>128</dim>
					<dim>128</dim>
					<dim>1</dim>
					<dim>1</dim>
				</port>
			</input>
			<output>
				<port id="1" precision="FP32">
					<dim>128</dim>
					<dim>128</dim>
					<dim>1</dim>
					<dim>1</dim>
				</port>
			</output>
		</layer>
		<layer id="128" name="Constant_67922_compressed" type="Const" version="opset1">
			<data element_type="f16" shape="128, 1, 1, 1" offset="32232" size="256" />
			<output>
				<port id="0" precision="FP16">
					<dim>128</dim>
					<dim>1</dim>
					<dim>1</dim>
					<dim>1</dim>
				</port>
			</output>
		</layer>
		<layer id="129" name="Constant_67922" type="Convert" version="opset1">
			<data destination_type="f32" />
			<rt_info>
				<attribute name="decompression" version="0" />
			</rt_info>
			<input>
				<port id="0" precision="FP16">
					<dim>128</dim>
					<dim>1</dim>
					<dim>1</dim>
					<dim>1</dim>
				</port>
			</input>
			<output>
				<port id="1" precision="FP32">
					<dim>128</dim>
					<dim>1</dim>
					<dim>1</dim>
					<dim>1</dim>
				</port>
			</output>
		</layer>
		<layer id="130" name="Conv__257/WithoutBiases/fq_weights_1" type="Multiply" version="opset1">
			<data auto_broadcast="numpy" />
			<input>
				<port id="0" precision="FP32">
					<dim>128</dim>
					<dim>128</dim>
					<dim>1</dim>
					<dim>1</dim>
				</port>
				<port id="1" precision="FP32">
					<dim>128</dim>
					<dim>1</dim>
					<dim>1</dim>
					<dim>1</dim>
				</port>
			</input>
			<output>
				<port id="2" precision="FP32">
					<dim>128</dim>
					<dim>128</dim>
					<dim>1</dim>
					<dim>1</dim>
				</port>
			</output>
		</layer>
		<layer id="131" name="Conv__257/WithoutBiases" type="Convolution" version="opset1">
			<data strides="1, 1" dilations="1, 1" pads_begin="0, 0" pads_end="0, 0" auto_pad="explicit" />
			<input>
				<port id="0" precision="FP32">
					<dim>1</dim>
					<dim>128</dim>
					<dim>56</dim>
					<dim>56</dim>
				</port>
				<port id="1" precision="FP32">
					<dim>128</dim>
					<dim>128</dim>
					<dim>1</dim>
					<dim>1</dim>
				</port>
			</input>
			<output>
				<port id="2" precision="FP32">
					<dim>1</dim>
					<dim>128</dim>
					<dim>56</dim>
					<dim>56</dim>
				</port>
			</output>
		</layer>
		<layer id="132" name="Reshape_307_compressed" type="Const" version="opset1">
			<data element_type="f16" shape="1, 128, 1, 1" offset="32488" size="256" />
			<output>
				<port id="0" precision="FP16">
					<dim>1</dim>
					<dim>128</dim>
					<dim>1</dim>
					<dim>1</dim>
				</port>
			</output>
		</layer>
		<layer id="133" name="Reshape_307" type="Convert" version="opset1">
			<data destination_type="f32" />
			<rt_info>
				<attribute name="decompression" version="0" />
			</rt_info>
			<input>
				<port id="0" precision="FP16">
					<dim>1</dim>
					<dim>128</dim>
					<dim>1</dim>
					<dim>1</dim>
				</port>
			</input>
			<output>
				<port id="1" precision="FP32">
					<dim>1</dim>
					<dim>128</dim>
					<dim>1</dim>
					<dim>1</dim>
				</port>
			</output>
		</layer>
		<layer id="134" name="Conv__257" type="Add" version="opset1">
			<data auto_broadcast="numpy" />
			<input>
				<port id="0" precision="FP32">
					<dim>1</dim>
					<dim>128</dim>
					<dim>56</dim>
					<dim>56</dim>
				</port>
				<port id="1" precision="FP32">
					<dim>1</dim>
					<dim>128</dim>
					<dim>1</dim>
					<dim>1</dim>
				</port>
			</input>
			<output>
				<port id="2" precision="FP32" names="Conv__257:0">
					<dim>1</dim>
					<dim>128</dim>
					<dim>56</dim>
					<dim>56</dim>
				</port>
			</output>
		</layer>
		<layer id="135" name="mobilenet_1.00_224_1/conv_pw_3_relu_1/Relu6" type="Clamp" version="opset1">
			<data min="0" max="6" />
			<input>
				<port id="0" precision="FP32">
					<dim>1</dim>
					<dim>128</dim>
					<dim>56</dim>
					<dim>56</dim>
				</port>
			</input>
			<output>
				<port id="1" precision="FP32" names="mobilenet_1.00_224_1/conv_pw_3_relu_1/Relu6:0">
					<dim>1</dim>
					<dim>128</dim>
					<dim>56</dim>
					<dim>56</dim>
				</port>
			</output>
		</layer>
		<layer id="136" name="mobilenet_1.00_224_1/conv_pw_3_relu_1/Relu6/fq_output_0/input_low_compressed" type="Const" version="opset1">
			<data element_type="f16" shape="1, 128, 1, 1" offset="13672" size="256" />
			<output>
				<port id="0" precision="FP16">
					<dim>1</dim>
					<dim>128</dim>
					<dim>1</dim>
					<dim>1</dim>
				</port>
			</output>
		</layer>
		<layer id="137" name="mobilenet_1.00_224_1/conv_pw_3_relu_1/Relu6/fq_output_0/input_low" type="Convert" version="opset1">
			<data destination_type="f32" />
			<rt_info>
				<attribute name="decompression" version="0" />
			</rt_info>
			<input>
				<port id="0" precision="FP16">
					<dim>1</dim>
					<dim>128</dim>
					<dim>1</dim>
					<dim>1</dim>
				</port>
			</input>
			<output>
				<port id="1" precision="FP32">
					<dim>1</dim>
					<dim>128</dim>
					<dim>1</dim>
					<dim>1</dim>
				</port>
			</output>
		</layer>
		<layer id="138" name="mobilenet_1.00_224_1/conv_pw_3_relu_1/Relu6/fq_output_0/input_high_compressed" type="Const" version="opset1">
			<data element_type="f16" shape="1, 128, 1, 1" offset="32744" size="256" />
			<output>
				<port id="0" precision="FP16">
					<dim>1</dim>
					<dim>128</dim>
					<dim>1</dim>
					<dim>1</dim>
				</port>
			</output>
		</layer>
		<layer id="139" name="mobilenet_1.00_224_1/conv_pw_3_relu_1/Relu6/fq_output_0/input_high" type="Convert" version="opset1">
			<data destination_type="f32" />
			<rt_info>
				<attribute name="decompression" version="0" />
			</rt_info>
			<input>
				<port id="0" precision="FP16">
					<dim>1</dim>
					<dim>128</dim>
					<dim>1</dim>
					<dim>1</dim>
				</port>
			</input>
			<output>
				<port id="1" precision="FP32">
					<dim>1</dim>
					<dim>128</dim>
					<dim>1</dim>
					<dim>1</dim>
				</port>
			</output>
		</layer>
		<layer id="140" name="mobilenet_1.00_224_1/conv_pw_3_relu_1/Relu6/fq_output_0/output_low_compressed" type="Const" version="opset1">
			<data element_type="f16" shape="1, 128, 1, 1" offset="13672" size="256" />
			<output>
				<port id="0" precision="FP16">
					<dim>1</dim>
					<dim>128</dim>
					<dim>1</dim>
					<dim>1</dim>
				</port>
			</output>
		</layer>
		<layer id="141" name="mobilenet_1.00_224_1/conv_pw_3_relu_1/Relu6/fq_output_0/output_low" type="Convert" version="opset1">
			<data destination_type="f32" />
			<rt_info>
				<attribute name="decompression" version="0" />
			</rt_info>
			<input>
				<port id="0" precision="FP16">
					<dim>1</dim>
					<dim>128</dim>
					<dim>1</dim>
					<dim>1</dim>
				</port>
			</input>
			<output>
				<port id="1" precision="FP32">
					<dim>1</dim>
					<dim>128</dim>
					<dim>1</dim>
					<dim>1</dim>
				</port>
			</output>
		</layer>
		<layer id="142" name="mobilenet_1.00_224_1/conv_pw_3_relu_1/Relu6/fq_output_0/output_high_compressed" type="Const" version="opset1">
			<data element_type="f16" shape="1, 128, 1, 1" offset="32744" size="256" />
			<output>
				<port id="0" precision="FP16">
					<dim>1</dim>
					<dim>128</dim>
					<dim>1</dim>
					<dim>1</dim>
				</port>
			</output>
		</layer>
		<layer id="143" name="mobilenet_1.00_224_1/conv_pw_3_relu_1/Relu6/fq_output_0/output_high" type="Convert" version="opset1">
			<data destination_type="f32" />
			<rt_info>
				<attribute name="decompression" version="0" />
			</rt_info>
			<input>
				<port id="0" precision="FP16">
					<dim>1</dim>
					<dim>128</dim>
					<dim>1</dim>
					<dim>1</dim>
				</port>
			</input>
			<output>
				<port id="1" precision="FP32">
					<dim>1</dim>
					<dim>128</dim>
					<dim>1</dim>
					<dim>1</dim>
				</port>
			</output>
		</layer>
		<layer id="144" name="mobilenet_1.00_224_1/conv_pw_3_relu_1/Relu6/fq_output_0" type="FakeQuantize" version="opset1">
			<data levels="256" auto_broadcast="numpy" />
			<input>
				<port id="0" precision="FP32">
					<dim>1</dim>
					<dim>128</dim>
					<dim>56</dim>
					<dim>56</dim>
				</port>
				<port id="1" precision="FP32">
					<dim>1</dim>
					<dim>128</dim>
					<dim>1</dim>
					<dim>1</dim>
				</port>
				<port id="2" precision="FP32">
					<dim>1</dim>
					<dim>128</dim>
					<dim>1</dim>
					<dim>1</dim>
				</port>
				<port id="3" precision="FP32">
					<dim>1</dim>
					<dim>128</dim>
					<dim>1</dim>
					<dim>1</dim>
				</port>
				<port id="4" precision="FP32">
					<dim>1</dim>
					<dim>128</dim>
					<dim>1</dim>
					<dim>1</dim>
				</port>
			</input>
			<output>
				<port id="5" precision="FP32">
					<dim>1</dim>
					<dim>128</dim>
					<dim>56</dim>
					<dim>56</dim>
				</port>
			</output>
		</layer>
		<layer id="145" name="Constant_67924" type="Const" version="opset1">
			<data element_type="i8" shape="128, 1, 1, 3, 3" offset="33000" size="1152" />
			<output>
				<port id="0" precision="I8">
					<dim>128</dim>
					<dim>1</dim>
					<dim>1</dim>
					<dim>3</dim>
					<dim>3</dim>
				</port>
			</output>
		</layer>
		<layer id="146" name="Convert_67925" type="Convert" version="opset1">
			<data destination_type="f32" />
			<input>
				<port id="0" precision="I8">
					<dim>128</dim>
					<dim>1</dim>
					<dim>1</dim>
					<dim>3</dim>
					<dim>3</dim>
				</port>
			</input>
			<output>
				<port id="1" precision="FP32">
					<dim>128</dim>
					<dim>1</dim>
					<dim>1</dim>
					<dim>3</dim>
					<dim>3</dim>
				</port>
			</output>
		</layer>
		<layer id="147" name="Constant_67926_compressed" type="Const" version="opset1">
			<data element_type="f16" shape="128, 1, 1, 1, 1" offset="34152" size="256" />
			<output>
				<port id="0" precision="FP16">
					<dim>128</dim>
					<dim>1</dim>
					<dim>1</dim>
					<dim>1</dim>
					<dim>1</dim>
				</port>
			</output>
		</layer>
		<layer id="148" name="Constant_67926" type="Convert" version="opset1">
			<data destination_type="f32" />
			<rt_info>
				<attribute name="decompression" version="0" />
			</rt_info>
			<input>
				<port id="0" precision="FP16">
					<dim>128</dim>
					<dim>1</dim>
					<dim>1</dim>
					<dim>1</dim>
					<dim>1</dim>
				</port>
			</input>
			<output>
				<port id="1" precision="FP32">
					<dim>128</dim>
					<dim>1</dim>
					<dim>1</dim>
					<dim>1</dim>
					<dim>1</dim>
				</port>
			</output>
		</layer>
		<layer id="149" name="mobilenet_1.00_224_1/conv_dw_4_bn_1/batchnorm/mul_1/fq_weights_1" type="Multiply" version="opset1">
			<data auto_broadcast="numpy" />
			<input>
				<port id="0" precision="FP32">
					<dim>128</dim>
					<dim>1</dim>
					<dim>1</dim>
					<dim>3</dim>
					<dim>3</dim>
				</port>
				<port id="1" precision="FP32">
					<dim>128</dim>
					<dim>1</dim>
					<dim>1</dim>
					<dim>1</dim>
					<dim>1</dim>
				</port>
			</input>
			<output>
				<port id="2" precision="FP32">
					<dim>128</dim>
					<dim>1</dim>
					<dim>1</dim>
					<dim>3</dim>
					<dim>3</dim>
				</port>
			</output>
		</layer>
		<layer id="150" name="mobilenet_1.00_224_1/conv_dw_4_bn_1/batchnorm/mul_1" type="GroupConvolution" version="opset1">
			<data strides="2, 2" pads_begin="0, 0" pads_end="1, 1" dilations="1, 1" auto_pad="explicit" />
			<input>
				<port id="0" precision="FP32">
					<dim>1</dim>
					<dim>128</dim>
					<dim>56</dim>
					<dim>56</dim>
				</port>
				<port id="1" precision="FP32">
					<dim>128</dim>
					<dim>1</dim>
					<dim>1</dim>
					<dim>3</dim>
					<dim>3</dim>
				</port>
			</input>
			<output>
				<port id="2" precision="FP32" names="mobilenet_1.00_224_1/conv_dw_4_1/depthwise:0,mobilenet_1.00_224_1/conv_dw_4_bn_1/batchnorm/mul_1:0">
					<dim>1</dim>
					<dim>128</dim>
					<dim>28</dim>
					<dim>28</dim>
				</port>
			</output>
		</layer>
		<layer id="151" name="const_fold_opt__409_compressed" type="Const" version="opset1">
			<data element_type="f16" shape="1, 128, 1, 1" offset="34408" size="256" />
			<output>
				<port id="0" precision="FP16" names="const_fold_opt__409">
					<dim>1</dim>
					<dim>128</dim>
					<dim>1</dim>
					<dim>1</dim>
				</port>
			</output>
		</layer>
		<layer id="152" name="const_fold_opt__409" type="Convert" version="opset1">
			<data destination_type="f32" />
			<rt_info>
				<attribute name="decompression" version="0" />
			</rt_info>
			<input>
				<port id="0" precision="FP16">
					<dim>1</dim>
					<dim>128</dim>
					<dim>1</dim>
					<dim>1</dim>
				</port>
			</input>
			<output>
				<port id="1" precision="FP32">
					<dim>1</dim>
					<dim>128</dim>
					<dim>1</dim>
					<dim>1</dim>
				</port>
			</output>
		</layer>
		<layer id="153" name="mobilenet_1.00_224_1/conv_dw_4_bn_1/batchnorm/add_1" type="Add" version="opset1">
			<data auto_broadcast="numpy" />
			<input>
				<port id="0" precision="FP32">
					<dim>1</dim>
					<dim>128</dim>
					<dim>28</dim>
					<dim>28</dim>
				</port>
				<port id="1" precision="FP32">
					<dim>1</dim>
					<dim>128</dim>
					<dim>1</dim>
					<dim>1</dim>
				</port>
			</input>
			<output>
				<port id="2" precision="FP32" names="mobilenet_1.00_224_1/conv_dw_4_bn_1/batchnorm/add_1:0">
					<dim>1</dim>
					<dim>128</dim>
					<dim>28</dim>
					<dim>28</dim>
				</port>
			</output>
		</layer>
		<layer id="154" name="mobilenet_1.00_224_1/conv_dw_4_relu_1/Relu6" type="Clamp" version="opset1">
			<data min="0" max="6" />
			<input>
				<port id="0" precision="FP32">
					<dim>1</dim>
					<dim>128</dim>
					<dim>28</dim>
					<dim>28</dim>
				</port>
			</input>
			<output>
				<port id="1" precision="FP32" names="mobilenet_1.00_224_1/conv_dw_4_relu_1/Relu6:0">
					<dim>1</dim>
					<dim>128</dim>
					<dim>28</dim>
					<dim>28</dim>
				</port>
			</output>
		</layer>
		<layer id="155" name="mobilenet_1.00_224_1/conv_dw_4_relu_1/Relu6/fq_output_0/input_low_compressed" type="Const" version="opset1">
			<data element_type="f16" shape="" offset="1572" size="2" />
			<output>
				<port id="0" precision="FP16" />
			</output>
		</layer>
		<layer id="156" name="mobilenet_1.00_224_1/conv_dw_4_relu_1/Relu6/fq_output_0/input_low" type="Convert" version="opset1">
			<data destination_type="f32" />
			<rt_info>
				<attribute name="decompression" version="0" />
			</rt_info>
			<input>
				<port id="0" precision="FP16" />
			</input>
			<output>
				<port id="1" precision="FP32" />
			</output>
		</layer>
		<layer id="157" name="mobilenet_1.00_224_1/conv_dw_4_relu_1/Relu6/fq_output_0/input_high_compressed" type="Const" version="opset1">
			<data element_type="f16" shape="" offset="1574" size="2" />
			<output>
				<port id="0" precision="FP16" />
			</output>
		</layer>
		<layer id="158" name="mobilenet_1.00_224_1/conv_dw_4_relu_1/Relu6/fq_output_0/input_high" type="Convert" version="opset1">
			<data destination_type="f32" />
			<rt_info>
				<attribute name="decompression" version="0" />
			</rt_info>
			<input>
				<port id="0" precision="FP16" />
			</input>
			<output>
				<port id="1" precision="FP32" />
			</output>
		</layer>
		<layer id="159" name="mobilenet_1.00_224_1/conv_dw_4_relu_1/Relu6/fq_output_0/output_low_compressed" type="Const" version="opset1">
			<data element_type="f16" shape="" offset="1572" size="2" />
			<output>
				<port id="0" precision="FP16" />
			</output>
		</layer>
		<layer id="160" name="mobilenet_1.00_224_1/conv_dw_4_relu_1/Relu6/fq_output_0/output_low" type="Convert" version="opset1">
			<data destination_type="f32" />
			<rt_info>
				<attribute name="decompression" version="0" />
			</rt_info>
			<input>
				<port id="0" precision="FP16" />
			</input>
			<output>
				<port id="1" precision="FP32" />
			</output>
		</layer>
		<layer id="161" name="mobilenet_1.00_224_1/conv_dw_4_relu_1/Relu6/fq_output_0/output_high_compressed" type="Const" version="opset1">
			<data element_type="f16" shape="" offset="1574" size="2" />
			<output>
				<port id="0" precision="FP16" />
			</output>
		</layer>
		<layer id="162" name="mobilenet_1.00_224_1/conv_dw_4_relu_1/Relu6/fq_output_0/output_high" type="Convert" version="opset1">
			<data destination_type="f32" />
			<rt_info>
				<attribute name="decompression" version="0" />
			</rt_info>
			<input>
				<port id="0" precision="FP16" />
			</input>
			<output>
				<port id="1" precision="FP32" />
			</output>
		</layer>
		<layer id="163" name="mobilenet_1.00_224_1/conv_dw_4_relu_1/Relu6/fq_output_0" type="FakeQuantize" version="opset1">
			<data levels="256" auto_broadcast="numpy" />
			<input>
				<port id="0" precision="FP32">
					<dim>1</dim>
					<dim>128</dim>
					<dim>28</dim>
					<dim>28</dim>
				</port>
				<port id="1" precision="FP32" />
				<port id="2" precision="FP32" />
				<port id="3" precision="FP32" />
				<port id="4" precision="FP32" />
			</input>
			<output>
				<port id="5" precision="FP32">
					<dim>1</dim>
					<dim>128</dim>
					<dim>28</dim>
					<dim>28</dim>
				</port>
			</output>
		</layer>
		<layer id="164" name="Constant_67928" type="Const" version="opset1">
			<data element_type="i8" shape="256, 128, 1, 1" offset="34664" size="32768" />
			<output>
				<port id="0" precision="I8">
					<dim>256</dim>
					<dim>128</dim>
					<dim>1</dim>
					<dim>1</dim>
				</port>
			</output>
		</layer>
		<layer id="165" name="Convert_67929" type="Convert" version="opset1">
			<data destination_type="f32" />
			<input>
				<port id="0" precision="I8">
					<dim>256</dim>
					<dim>128</dim>
					<dim>1</dim>
					<dim>1</dim>
				</port>
			</input>
			<output>
				<port id="1" precision="FP32">
					<dim>256</dim>
					<dim>128</dim>
					<dim>1</dim>
					<dim>1</dim>
				</port>
			</output>
		</layer>
		<layer id="166" name="Constant_67930_compressed" type="Const" version="opset1">
			<data element_type="f16" shape="256, 1, 1, 1" offset="67432" size="512" />
			<output>
				<port id="0" precision="FP16">
					<dim>256</dim>
					<dim>1</dim>
					<dim>1</dim>
					<dim>1</dim>
				</port>
			</output>
		</layer>
		<layer id="167" name="Constant_67930" type="Convert" version="opset1">
			<data destination_type="f32" />
			<rt_info>
				<attribute name="decompression" version="0" />
			</rt_info>
			<input>
				<port id="0" precision="FP16">
					<dim>256</dim>
					<dim>1</dim>
					<dim>1</dim>
					<dim>1</dim>
				</port>
			</input>
			<output>
				<port id="1" precision="FP32">
					<dim>256</dim>
					<dim>1</dim>
					<dim>1</dim>
					<dim>1</dim>
				</port>
			</output>
		</layer>
		<layer id="168" name="Conv__267/WithoutBiases/fq_weights_1" type="Multiply" version="opset1">
			<data auto_broadcast="numpy" />
			<input>
				<port id="0" precision="FP32">
					<dim>256</dim>
					<dim>128</dim>
					<dim>1</dim>
					<dim>1</dim>
				</port>
				<port id="1" precision="FP32">
					<dim>256</dim>
					<dim>1</dim>
					<dim>1</dim>
					<dim>1</dim>
				</port>
			</input>
			<output>
				<port id="2" precision="FP32">
					<dim>256</dim>
					<dim>128</dim>
					<dim>1</dim>
					<dim>1</dim>
				</port>
			</output>
		</layer>
		<layer id="169" name="Conv__267/WithoutBiases" type="Convolution" version="opset1">
			<data strides="1, 1" dilations="1, 1" pads_begin="0, 0" pads_end="0, 0" auto_pad="explicit" />
			<input>
				<port id="0" precision="FP32">
					<dim>1</dim>
					<dim>128</dim>
					<dim>28</dim>
					<dim>28</dim>
				</port>
				<port id="1" precision="FP32">
					<dim>256</dim>
					<dim>128</dim>
					<dim>1</dim>
					<dim>1</dim>
				</port>
			</input>
			<output>
				<port id="2" precision="FP32">
					<dim>1</dim>
					<dim>256</dim>
					<dim>28</dim>
					<dim>28</dim>
				</port>
			</output>
		</layer>
		<layer id="170" name="Reshape_382_compressed" type="Const" version="opset1">
			<data element_type="f16" shape="1, 256, 1, 1" offset="67944" size="512" />
			<output>
				<port id="0" precision="FP16">
					<dim>1</dim>
					<dim>256</dim>
					<dim>1</dim>
					<dim>1</dim>
				</port>
			</output>
		</layer>
		<layer id="171" name="Reshape_382" type="Convert" version="opset1">
			<data destination_type="f32" />
			<rt_info>
				<attribute name="decompression" version="0" />
			</rt_info>
			<input>
				<port id="0" precision="FP16">
					<dim>1</dim>
					<dim>256</dim>
					<dim>1</dim>
					<dim>1</dim>
				</port>
			</input>
			<output>
				<port id="1" precision="FP32">
					<dim>1</dim>
					<dim>256</dim>
					<dim>1</dim>
					<dim>1</dim>
				</port>
			</output>
		</layer>
		<layer id="172" name="Conv__267" type="Add" version="opset1">
			<data auto_broadcast="numpy" />
			<input>
				<port id="0" precision="FP32">
					<dim>1</dim>
					<dim>256</dim>
					<dim>28</dim>
					<dim>28</dim>
				</port>
				<port id="1" precision="FP32">
					<dim>1</dim>
					<dim>256</dim>
					<dim>1</dim>
					<dim>1</dim>
				</port>
			</input>
			<output>
				<port id="2" precision="FP32" names="Conv__267:0">
					<dim>1</dim>
					<dim>256</dim>
					<dim>28</dim>
					<dim>28</dim>
				</port>
			</output>
		</layer>
		<layer id="173" name="mobilenet_1.00_224_1/conv_pw_4_relu_1/Relu6" type="Clamp" version="opset1">
			<data min="0" max="6" />
			<input>
				<port id="0" precision="FP32">
					<dim>1</dim>
					<dim>256</dim>
					<dim>28</dim>
					<dim>28</dim>
				</port>
			</input>
			<output>
				<port id="1" precision="FP32" names="mobilenet_1.00_224_1/conv_pw_4_relu_1/Relu6:0">
					<dim>1</dim>
					<dim>256</dim>
					<dim>28</dim>
					<dim>28</dim>
				</port>
			</output>
		</layer>
		<layer id="174" name="mobilenet_1.00_224_1/conv_pw_4_relu_1/Relu6/fq_output_0/input_low_compressed" type="Const" version="opset1">
			<data element_type="f16" shape="1, 256, 1, 1" offset="68456" size="512" />
			<output>
				<port id="0" precision="FP16">
					<dim>1</dim>
					<dim>256</dim>
					<dim>1</dim>
					<dim>1</dim>
				</port>
			</output>
		</layer>
		<layer id="175" name="mobilenet_1.00_224_1/conv_pw_4_relu_1/Relu6/fq_output_0/input_low" type="Convert" version="opset1">
			<data destination_type="f32" />
			<rt_info>
				<attribute name="decompression" version="0" />
			</rt_info>
			<input>
				<port id="0" precision="FP16">
					<dim>1</dim>
					<dim>256</dim>
					<dim>1</dim>
					<dim>1</dim>
				</port>
			</input>
			<output>
				<port id="1" precision="FP32">
					<dim>1</dim>
					<dim>256</dim>
					<dim>1</dim>
					<dim>1</dim>
				</port>
			</output>
		</layer>
		<layer id="176" name="mobilenet_1.00_224_1/conv_pw_4_relu_1/Relu6/fq_output_0/input_high_compressed" type="Const" version="opset1">
			<data element_type="f16" shape="1, 256, 1, 1" offset="68968" size="512" />
			<output>
				<port id="0" precision="FP16">
					<dim>1</dim>
					<dim>256</dim>
					<dim>1</dim>
					<dim>1</dim>
				</port>
			</output>
		</layer>
		<layer id="177" name="mobilenet_1.00_224_1/conv_pw_4_relu_1/Relu6/fq_output_0/input_high" type="Convert" version="opset1">
			<data destination_type="f32" />
			<rt_info>
				<attribute name="decompression" version="0" />
			</rt_info>
			<input>
				<port id="0" precision="FP16">
					<dim>1</dim>
					<dim>256</dim>
					<dim>1</dim>
					<dim>1</dim>
				</port>
			</input>
			<output>
				<port id="1" precision="FP32">
					<dim>1</dim>
					<dim>256</dim>
					<dim>1</dim>
					<dim>1</dim>
				</port>
			</output>
		</layer>
		<layer id="178" name="mobilenet_1.00_224_1/conv_pw_4_relu_1/Relu6/fq_output_0/output_low_compressed" type="Const" version="opset1">
			<data element_type="f16" shape="1, 256, 1, 1" offset="68456" size="512" />
			<output>
				<port id="0" precision="FP16">
					<dim>1</dim>
					<dim>256</dim>
					<dim>1</dim>
					<dim>1</dim>
				</port>
			</output>
		</layer>
		<layer id="179" name="mobilenet_1.00_224_1/conv_pw_4_relu_1/Relu6/fq_output_0/output_low" type="Convert" version="opset1">
			<data destination_type="f32" />
			<rt_info>
				<attribute name="decompression" version="0" />
			</rt_info>
			<input>
				<port id="0" precision="FP16">
					<dim>1</dim>
					<dim>256</dim>
					<dim>1</dim>
					<dim>1</dim>
				</port>
			</input>
			<output>
				<port id="1" precision="FP32">
					<dim>1</dim>
					<dim>256</dim>
					<dim>1</dim>
					<dim>1</dim>
				</port>
			</output>
		</layer>
		<layer id="180" name="mobilenet_1.00_224_1/conv_pw_4_relu_1/Relu6/fq_output_0/output_high_compressed" type="Const" version="opset1">
			<data element_type="f16" shape="1, 256, 1, 1" offset="68968" size="512" />
			<output>
				<port id="0" precision="FP16">
					<dim>1</dim>
					<dim>256</dim>
					<dim>1</dim>
					<dim>1</dim>
				</port>
			</output>
		</layer>
		<layer id="181" name="mobilenet_1.00_224_1/conv_pw_4_relu_1/Relu6/fq_output_0/output_high" type="Convert" version="opset1">
			<data destination_type="f32" />
			<rt_info>
				<attribute name="decompression" version="0" />
			</rt_info>
			<input>
				<port id="0" precision="FP16">
					<dim>1</dim>
					<dim>256</dim>
					<dim>1</dim>
					<dim>1</dim>
				</port>
			</input>
			<output>
				<port id="1" precision="FP32">
					<dim>1</dim>
					<dim>256</dim>
					<dim>1</dim>
					<dim>1</dim>
				</port>
			</output>
		</layer>
		<layer id="182" name="mobilenet_1.00_224_1/conv_pw_4_relu_1/Relu6/fq_output_0" type="FakeQuantize" version="opset1">
			<data levels="256" auto_broadcast="numpy" />
			<input>
				<port id="0" precision="FP32">
					<dim>1</dim>
					<dim>256</dim>
					<dim>28</dim>
					<dim>28</dim>
				</port>
				<port id="1" precision="FP32">
					<dim>1</dim>
					<dim>256</dim>
					<dim>1</dim>
					<dim>1</dim>
				</port>
				<port id="2" precision="FP32">
					<dim>1</dim>
					<dim>256</dim>
					<dim>1</dim>
					<dim>1</dim>
				</port>
				<port id="3" precision="FP32">
					<dim>1</dim>
					<dim>256</dim>
					<dim>1</dim>
					<dim>1</dim>
				</port>
				<port id="4" precision="FP32">
					<dim>1</dim>
					<dim>256</dim>
					<dim>1</dim>
					<dim>1</dim>
				</port>
			</input>
			<output>
				<port id="5" precision="FP32">
					<dim>1</dim>
					<dim>256</dim>
					<dim>28</dim>
					<dim>28</dim>
				</port>
			</output>
		</layer>
		<layer id="183" name="Constant_67932" type="Const" version="opset1">
			<data element_type="i8" shape="256, 1, 1, 3, 3" offset="69480" size="2304" />
			<output>
				<port id="0" precision="I8">
					<dim>256</dim>
					<dim>1</dim>
					<dim>1</dim>
					<dim>3</dim>
					<dim>3</dim>
				</port>
			</output>
		</layer>
		<layer id="184" name="Convert_67933" type="Convert" version="opset1">
			<data destination_type="f32" />
			<input>
				<port id="0" precision="I8">
					<dim>256</dim>
					<dim>1</dim>
					<dim>1</dim>
					<dim>3</dim>
					<dim>3</dim>
				</port>
			</input>
			<output>
				<port id="1" precision="FP32">
					<dim>256</dim>
					<dim>1</dim>
					<dim>1</dim>
					<dim>3</dim>
					<dim>3</dim>
				</port>
			</output>
		</layer>
		<layer id="185" name="Constant_67934_compressed" type="Const" version="opset1">
			<data element_type="f16" shape="256, 1, 1, 1, 1" offset="71784" size="512" />
			<output>
				<port id="0" precision="FP16">
					<dim>256</dim>
					<dim>1</dim>
					<dim>1</dim>
					<dim>1</dim>
					<dim>1</dim>
				</port>
			</output>
		</layer>
		<layer id="186" name="Constant_67934" type="Convert" version="opset1">
			<data destination_type="f32" />
			<rt_info>
				<attribute name="decompression" version="0" />
			</rt_info>
			<input>
				<port id="0" precision="FP16">
					<dim>256</dim>
					<dim>1</dim>
					<dim>1</dim>
					<dim>1</dim>
					<dim>1</dim>
				</port>
			</input>
			<output>
				<port id="1" precision="FP32">
					<dim>256</dim>
					<dim>1</dim>
					<dim>1</dim>
					<dim>1</dim>
					<dim>1</dim>
				</port>
			</output>
		</layer>
		<layer id="187" name="mobilenet_1.00_224_1/conv_dw_5_bn_1/batchnorm/mul_1/fq_weights_1" type="Multiply" version="opset1">
			<data auto_broadcast="numpy" />
			<input>
				<port id="0" precision="FP32">
					<dim>256</dim>
					<dim>1</dim>
					<dim>1</dim>
					<dim>3</dim>
					<dim>3</dim>
				</port>
				<port id="1" precision="FP32">
					<dim>256</dim>
					<dim>1</dim>
					<dim>1</dim>
					<dim>1</dim>
					<dim>1</dim>
				</port>
			</input>
			<output>
				<port id="2" precision="FP32">
					<dim>256</dim>
					<dim>1</dim>
					<dim>1</dim>
					<dim>3</dim>
					<dim>3</dim>
				</port>
			</output>
		</layer>
		<layer id="188" name="mobilenet_1.00_224_1/conv_dw_5_bn_1/batchnorm/mul_1" type="GroupConvolution" version="opset1">
			<data strides="1, 1" pads_begin="1, 1" pads_end="1, 1" dilations="1, 1" auto_pad="explicit" />
			<input>
				<port id="0" precision="FP32">
					<dim>1</dim>
					<dim>256</dim>
					<dim>28</dim>
					<dim>28</dim>
				</port>
				<port id="1" precision="FP32">
					<dim>256</dim>
					<dim>1</dim>
					<dim>1</dim>
					<dim>3</dim>
					<dim>3</dim>
				</port>
			</input>
			<output>
				<port id="2" precision="FP32" names="mobilenet_1.00_224_1/conv_dw_5_1/depthwise:0,mobilenet_1.00_224_1/conv_dw_5_bn_1/batchnorm/mul_1:0">
					<dim>1</dim>
					<dim>256</dim>
					<dim>28</dim>
					<dim>28</dim>
				</port>
			</output>
		</layer>
		<layer id="189" name="const_fold_opt__408_compressed" type="Const" version="opset1">
			<data element_type="f16" shape="1, 256, 1, 1" offset="72296" size="512" />
			<output>
				<port id="0" precision="FP16" names="const_fold_opt__408">
					<dim>1</dim>
					<dim>256</dim>
					<dim>1</dim>
					<dim>1</dim>
				</port>
			</output>
		</layer>
		<layer id="190" name="const_fold_opt__408" type="Convert" version="opset1">
			<data destination_type="f32" />
			<rt_info>
				<attribute name="decompression" version="0" />
			</rt_info>
			<input>
				<port id="0" precision="FP16">
					<dim>1</dim>
					<dim>256</dim>
					<dim>1</dim>
					<dim>1</dim>
				</port>
			</input>
			<output>
				<port id="1" precision="FP32">
					<dim>1</dim>
					<dim>256</dim>
					<dim>1</dim>
					<dim>1</dim>
				</port>
			</output>
		</layer>
		<layer id="191" name="mobilenet_1.00_224_1/conv_dw_5_bn_1/batchnorm/add_1" type="Add" version="opset1">
			<data auto_broadcast="numpy" />
			<input>
				<port id="0" precision="FP32">
					<dim>1</dim>
					<dim>256</dim>
					<dim>28</dim>
					<dim>28</dim>
				</port>
				<port id="1" precision="FP32">
					<dim>1</dim>
					<dim>256</dim>
					<dim>1</dim>
					<dim>1</dim>
				</port>
			</input>
			<output>
				<port id="2" precision="FP32" names="mobilenet_1.00_224_1/conv_dw_5_bn_1/batchnorm/add_1:0">
					<dim>1</dim>
					<dim>256</dim>
					<dim>28</dim>
					<dim>28</dim>
				</port>
			</output>
		</layer>
		<layer id="192" name="mobilenet_1.00_224_1/conv_dw_5_relu_1/Relu6" type="Clamp" version="opset1">
			<data min="0" max="6" />
			<input>
				<port id="0" precision="FP32">
					<dim>1</dim>
					<dim>256</dim>
					<dim>28</dim>
					<dim>28</dim>
				</port>
			</input>
			<output>
				<port id="1" precision="FP32" names="mobilenet_1.00_224_1/conv_dw_5_relu_1/Relu6:0">
					<dim>1</dim>
					<dim>256</dim>
					<dim>28</dim>
					<dim>28</dim>
				</port>
			</output>
		</layer>
		<layer id="193" name="mobilenet_1.00_224_1/conv_dw_5_relu_1/Relu6/fq_output_0/input_low_compressed" type="Const" version="opset1">
			<data element_type="f16" shape="" offset="1572" size="2" />
			<output>
				<port id="0" precision="FP16" />
			</output>
		</layer>
		<layer id="194" name="mobilenet_1.00_224_1/conv_dw_5_relu_1/Relu6/fq_output_0/input_low" type="Convert" version="opset1">
			<data destination_type="f32" />
			<rt_info>
				<attribute name="decompression" version="0" />
			</rt_info>
			<input>
				<port id="0" precision="FP16" />
			</input>
			<output>
				<port id="1" precision="FP32" />
			</output>
		</layer>
		<layer id="195" name="mobilenet_1.00_224_1/conv_dw_5_relu_1/Relu6/fq_output_0/input_high_compressed" type="Const" version="opset1">
			<data element_type="f16" shape="" offset="1574" size="2" />
			<output>
				<port id="0" precision="FP16" />
			</output>
		</layer>
		<layer id="196" name="mobilenet_1.00_224_1/conv_dw_5_relu_1/Relu6/fq_output_0/input_high" type="Convert" version="opset1">
			<data destination_type="f32" />
			<rt_info>
				<attribute name="decompression" version="0" />
			</rt_info>
			<input>
				<port id="0" precision="FP16" />
			</input>
			<output>
				<port id="1" precision="FP32" />
			</output>
		</layer>
		<layer id="197" name="mobilenet_1.00_224_1/conv_dw_5_relu_1/Relu6/fq_output_0/output_low_compressed" type="Const" version="opset1">
			<data element_type="f16" shape="" offset="1572" size="2" />
			<output>
				<port id="0" precision="FP16" />
			</output>
		</layer>
		<layer id="198" name="mobilenet_1.00_224_1/conv_dw_5_relu_1/Relu6/fq_output_0/output_low" type="Convert" version="opset1">
			<data destination_type="f32" />
			<rt_info>
				<attribute name="decompression" version="0" />
			</rt_info>
			<input>
				<port id="0" precision="FP16" />
			</input>
			<output>
				<port id="1" precision="FP32" />
			</output>
		</layer>
		<layer id="199" name="mobilenet_1.00_224_1/conv_dw_5_relu_1/Relu6/fq_output_0/output_high_compressed" type="Const" version="opset1">
			<data element_type="f16" shape="" offset="1574" size="2" />
			<output>
				<port id="0" precision="FP16" />
			</output>
		</layer>
		<layer id="200" name="mobilenet_1.00_224_1/conv_dw_5_relu_1/Relu6/fq_output_0/output_high" type="Convert" version="opset1">
			<data destination_type="f32" />
			<rt_info>
				<attribute name="decompression" version="0" />
			</rt_info>
			<input>
				<port id="0" precision="FP16" />
			</input>
			<output>
				<port id="1" precision="FP32" />
			</output>
		</layer>
		<layer id="201" name="mobilenet_1.00_224_1/conv_dw_5_relu_1/Relu6/fq_output_0" type="FakeQuantize" version="opset1">
			<data levels="256" auto_broadcast="numpy" />
			<input>
				<port id="0" precision="FP32">
					<dim>1</dim>
					<dim>256</dim>
					<dim>28</dim>
					<dim>28</dim>
				</port>
				<port id="1" precision="FP32" />
				<port id="2" precision="FP32" />
				<port id="3" precision="FP32" />
				<port id="4" precision="FP32" />
			</input>
			<output>
				<port id="5" precision="FP32">
					<dim>1</dim>
					<dim>256</dim>
					<dim>28</dim>
					<dim>28</dim>
				</port>
			</output>
		</layer>
		<layer id="202" name="Constant_67936" type="Const" version="opset1">
			<data element_type="i8" shape="256, 256, 1, 1" offset="72808" size="65536" />
			<output>
				<port id="0" precision="I8">
					<dim>256</dim>
					<dim>256</dim>
					<dim>1</dim>
					<dim>1</dim>
				</port>
			</output>
		</layer>
		<layer id="203" name="Convert_67937" type="Convert" version="opset1">
			<data destination_type="f32" />
			<input>
				<port id="0" precision="I8">
					<dim>256</dim>
					<dim>256</dim>
					<dim>1</dim>
					<dim>1</dim>
				</port>
			</input>
			<output>
				<port id="1" precision="FP32">
					<dim>256</dim>
					<dim>256</dim>
					<dim>1</dim>
					<dim>1</dim>
				</port>
			</output>
		</layer>
		<layer id="204" name="Constant_67938_compressed" type="Const" version="opset1">
			<data element_type="f16" shape="256, 1, 1, 1" offset="138344" size="512" />
			<output>
				<port id="0" precision="FP16">
					<dim>256</dim>
					<dim>1</dim>
					<dim>1</dim>
					<dim>1</dim>
				</port>
			</output>
		</layer>
		<layer id="205" name="Constant_67938" type="Convert" version="opset1">
			<data destination_type="f32" />
			<rt_info>
				<attribute name="decompression" version="0" />
			</rt_info>
			<input>
				<port id="0" precision="FP16">
					<dim>256</dim>
					<dim>1</dim>
					<dim>1</dim>
					<dim>1</dim>
				</port>
			</input>
			<output>
				<port id="1" precision="FP32">
					<dim>256</dim>
					<dim>1</dim>
					<dim>1</dim>
					<dim>1</dim>
				</port>
			</output>
		</layer>
		<layer id="206" name="Conv__277/WithoutBiases/fq_weights_1" type="Multiply" version="opset1">
			<data auto_broadcast="numpy" />
			<input>
				<port id="0" precision="FP32">
					<dim>256</dim>
					<dim>256</dim>
					<dim>1</dim>
					<dim>1</dim>
				</port>
				<port id="1" precision="FP32">
					<dim>256</dim>
					<dim>1</dim>
					<dim>1</dim>
					<dim>1</dim>
				</port>
			</input>
			<output>
				<port id="2" precision="FP32">
					<dim>256</dim>
					<dim>256</dim>
					<dim>1</dim>
					<dim>1</dim>
				</port>
			</output>
		</layer>
		<layer id="207" name="Conv__277/WithoutBiases" type="Convolution" version="opset1">
			<data strides="1, 1" dilations="1, 1" pads_begin="0, 0" pads_end="0, 0" auto_pad="explicit" />
			<input>
				<port id="0" precision="FP32">
					<dim>1</dim>
					<dim>256</dim>
					<dim>28</dim>
					<dim>28</dim>
				</port>
				<port id="1" precision="FP32">
					<dim>256</dim>
					<dim>256</dim>
					<dim>1</dim>
					<dim>1</dim>
				</port>
			</input>
			<output>
				<port id="2" precision="FP32">
					<dim>1</dim>
					<dim>256</dim>
					<dim>28</dim>
					<dim>28</dim>
				</port>
			</output>
		</layer>
		<layer id="208" name="Reshape_453_compressed" type="Const" version="opset1">
			<data element_type="f16" shape="1, 256, 1, 1" offset="138856" size="512" />
			<output>
				<port id="0" precision="FP16">
					<dim>1</dim>
					<dim>256</dim>
					<dim>1</dim>
					<dim>1</dim>
				</port>
			</output>
		</layer>
		<layer id="209" name="Reshape_453" type="Convert" version="opset1">
			<data destination_type="f32" />
			<rt_info>
				<attribute name="decompression" version="0" />
			</rt_info>
			<input>
				<port id="0" precision="FP16">
					<dim>1</dim>
					<dim>256</dim>
					<dim>1</dim>
					<dim>1</dim>
				</port>
			</input>
			<output>
				<port id="1" precision="FP32">
					<dim>1</dim>
					<dim>256</dim>
					<dim>1</dim>
					<dim>1</dim>
				</port>
			</output>
		</layer>
		<layer id="210" name="Conv__277" type="Add" version="opset1">
			<data auto_broadcast="numpy" />
			<input>
				<port id="0" precision="FP32">
					<dim>1</dim>
					<dim>256</dim>
					<dim>28</dim>
					<dim>28</dim>
				</port>
				<port id="1" precision="FP32">
					<dim>1</dim>
					<dim>256</dim>
					<dim>1</dim>
					<dim>1</dim>
				</port>
			</input>
			<output>
				<port id="2" precision="FP32" names="Conv__277:0">
					<dim>1</dim>
					<dim>256</dim>
					<dim>28</dim>
					<dim>28</dim>
				</port>
			</output>
		</layer>
		<layer id="211" name="mobilenet_1.00_224_1/conv_pw_5_relu_1/Relu6" type="Clamp" version="opset1">
			<data min="0" max="6" />
			<input>
				<port id="0" precision="FP32">
					<dim>1</dim>
					<dim>256</dim>
					<dim>28</dim>
					<dim>28</dim>
				</port>
			</input>
			<output>
				<port id="1" precision="FP32" names="mobilenet_1.00_224_1/conv_pw_5_relu_1/Relu6:0">
					<dim>1</dim>
					<dim>256</dim>
					<dim>28</dim>
					<dim>28</dim>
				</port>
			</output>
		</layer>
		<layer id="212" name="mobilenet_1.00_224_1/conv_pw_5_relu_1/Relu6/fq_output_0/input_low_compressed" type="Const" version="opset1">
			<data element_type="f16" shape="1, 256, 1, 1" offset="68456" size="512" />
			<output>
				<port id="0" precision="FP16">
					<dim>1</dim>
					<dim>256</dim>
					<dim>1</dim>
					<dim>1</dim>
				</port>
			</output>
		</layer>
		<layer id="213" name="mobilenet_1.00_224_1/conv_pw_5_relu_1/Relu6/fq_output_0/input_low" type="Convert" version="opset1">
			<data destination_type="f32" />
			<rt_info>
				<attribute name="decompression" version="0" />
			</rt_info>
			<input>
				<port id="0" precision="FP16">
					<dim>1</dim>
					<dim>256</dim>
					<dim>1</dim>
					<dim>1</dim>
				</port>
			</input>
			<output>
				<port id="1" precision="FP32">
					<dim>1</dim>
					<dim>256</dim>
					<dim>1</dim>
					<dim>1</dim>
				</port>
			</output>
		</layer>
		<layer id="214" name="mobilenet_1.00_224_1/conv_pw_5_relu_1/Relu6/fq_output_0/input_high_compressed" type="Const" version="opset1">
			<data element_type="f16" shape="1, 256, 1, 1" offset="139368" size="512" />
			<output>
				<port id="0" precision="FP16">
					<dim>1</dim>
					<dim>256</dim>
					<dim>1</dim>
					<dim>1</dim>
				</port>
			</output>
		</layer>
		<layer id="215" name="mobilenet_1.00_224_1/conv_pw_5_relu_1/Relu6/fq_output_0/input_high" type="Convert" version="opset1">
			<data destination_type="f32" />
			<rt_info>
				<attribute name="decompression" version="0" />
			</rt_info>
			<input>
				<port id="0" precision="FP16">
					<dim>1</dim>
					<dim>256</dim>
					<dim>1</dim>
					<dim>1</dim>
				</port>
			</input>
			<output>
				<port id="1" precision="FP32">
					<dim>1</dim>
					<dim>256</dim>
					<dim>1</dim>
					<dim>1</dim>
				</port>
			</output>
		</layer>
		<layer id="216" name="mobilenet_1.00_224_1/conv_pw_5_relu_1/Relu6/fq_output_0/output_low_compressed" type="Const" version="opset1">
			<data element_type="f16" shape="1, 256, 1, 1" offset="68456" size="512" />
			<output>
				<port id="0" precision="FP16">
					<dim>1</dim>
					<dim>256</dim>
					<dim>1</dim>
					<dim>1</dim>
				</port>
			</output>
		</layer>
		<layer id="217" name="mobilenet_1.00_224_1/conv_pw_5_relu_1/Relu6/fq_output_0/output_low" type="Convert" version="opset1">
			<data destination_type="f32" />
			<rt_info>
				<attribute name="decompression" version="0" />
			</rt_info>
			<input>
				<port id="0" precision="FP16">
					<dim>1</dim>
					<dim>256</dim>
					<dim>1</dim>
					<dim>1</dim>
				</port>
			</input>
			<output>
				<port id="1" precision="FP32">
					<dim>1</dim>
					<dim>256</dim>
					<dim>1</dim>
					<dim>1</dim>
				</port>
			</output>
		</layer>
		<layer id="218" name="mobilenet_1.00_224_1/conv_pw_5_relu_1/Relu6/fq_output_0/output_high_compressed" type="Const" version="opset1">
			<data element_type="f16" shape="1, 256, 1, 1" offset="139368" size="512" />
			<output>
				<port id="0" precision="FP16">
					<dim>1</dim>
					<dim>256</dim>
					<dim>1</dim>
					<dim>1</dim>
				</port>
			</output>
		</layer>
		<layer id="219" name="mobilenet_1.00_224_1/conv_pw_5_relu_1/Relu6/fq_output_0/output_high" type="Convert" version="opset1">
			<data destination_type="f32" />
			<rt_info>
				<attribute name="decompression" version="0" />
			</rt_info>
			<input>
				<port id="0" precision="FP16">
					<dim>1</dim>
					<dim>256</dim>
					<dim>1</dim>
					<dim>1</dim>
				</port>
			</input>
			<output>
				<port id="1" precision="FP32">
					<dim>1</dim>
					<dim>256</dim>
					<dim>1</dim>
					<dim>1</dim>
				</port>
			</output>
		</layer>
		<layer id="220" name="mobilenet_1.00_224_1/conv_pw_5_relu_1/Relu6/fq_output_0" type="FakeQuantize" version="opset1">
			<data levels="256" auto_broadcast="numpy" />
			<input>
				<port id="0" precision="FP32">
					<dim>1</dim>
					<dim>256</dim>
					<dim>28</dim>
					<dim>28</dim>
				</port>
				<port id="1" precision="FP32">
					<dim>1</dim>
					<dim>256</dim>
					<dim>1</dim>
					<dim>1</dim>
				</port>
				<port id="2" precision="FP32">
					<dim>1</dim>
					<dim>256</dim>
					<dim>1</dim>
					<dim>1</dim>
				</port>
				<port id="3" precision="FP32">
					<dim>1</dim>
					<dim>256</dim>
					<dim>1</dim>
					<dim>1</dim>
				</port>
				<port id="4" precision="FP32">
					<dim>1</dim>
					<dim>256</dim>
					<dim>1</dim>
					<dim>1</dim>
				</port>
			</input>
			<output>
				<port id="5" precision="FP32">
					<dim>1</dim>
					<dim>256</dim>
					<dim>28</dim>
					<dim>28</dim>
				</port>
			</output>
		</layer>
		<layer id="221" name="Constant_67940" type="Const" version="opset1">
			<data element_type="i8" shape="256, 1, 1, 3, 3" offset="139880" size="2304" />
			<output>
				<port id="0" precision="I8">
					<dim>256</dim>
					<dim>1</dim>
					<dim>1</dim>
					<dim>3</dim>
					<dim>3</dim>
				</port>
			</output>
		</layer>
		<layer id="222" name="Convert_67941" type="Convert" version="opset1">
			<data destination_type="f32" />
			<input>
				<port id="0" precision="I8">
					<dim>256</dim>
					<dim>1</dim>
					<dim>1</dim>
					<dim>3</dim>
					<dim>3</dim>
				</port>
			</input>
			<output>
				<port id="1" precision="FP32">
					<dim>256</dim>
					<dim>1</dim>
					<dim>1</dim>
					<dim>3</dim>
					<dim>3</dim>
				</port>
			</output>
		</layer>
		<layer id="223" name="Constant_67942_compressed" type="Const" version="opset1">
			<data element_type="f16" shape="256, 1, 1, 1, 1" offset="142184" size="512" />
			<output>
				<port id="0" precision="FP16">
					<dim>256</dim>
					<dim>1</dim>
					<dim>1</dim>
					<dim>1</dim>
					<dim>1</dim>
				</port>
			</output>
		</layer>
		<layer id="224" name="Constant_67942" type="Convert" version="opset1">
			<data destination_type="f32" />
			<rt_info>
				<attribute name="decompression" version="0" />
			</rt_info>
			<input>
				<port id="0" precision="FP16">
					<dim>256</dim>
					<dim>1</dim>
					<dim>1</dim>
					<dim>1</dim>
					<dim>1</dim>
				</port>
			</input>
			<output>
				<port id="1" precision="FP32">
					<dim>256</dim>
					<dim>1</dim>
					<dim>1</dim>
					<dim>1</dim>
					<dim>1</dim>
				</port>
			</output>
		</layer>
		<layer id="225" name="mobilenet_1.00_224_1/conv_dw_6_bn_1/batchnorm/mul_1/fq_weights_1" type="Multiply" version="opset1">
			<data auto_broadcast="numpy" />
			<input>
				<port id="0" precision="FP32">
					<dim>256</dim>
					<dim>1</dim>
					<dim>1</dim>
					<dim>3</dim>
					<dim>3</dim>
				</port>
				<port id="1" precision="FP32">
					<dim>256</dim>
					<dim>1</dim>
					<dim>1</dim>
					<dim>1</dim>
					<dim>1</dim>
				</port>
			</input>
			<output>
				<port id="2" precision="FP32">
					<dim>256</dim>
					<dim>1</dim>
					<dim>1</dim>
					<dim>3</dim>
					<dim>3</dim>
				</port>
			</output>
		</layer>
		<layer id="226" name="mobilenet_1.00_224_1/conv_dw_6_bn_1/batchnorm/mul_1" type="GroupConvolution" version="opset1">
			<data strides="2, 2" pads_begin="0, 0" pads_end="1, 1" dilations="1, 1" auto_pad="explicit" />
			<input>
				<port id="0" precision="FP32">
					<dim>1</dim>
					<dim>256</dim>
					<dim>28</dim>
					<dim>28</dim>
				</port>
				<port id="1" precision="FP32">
					<dim>256</dim>
					<dim>1</dim>
					<dim>1</dim>
					<dim>3</dim>
					<dim>3</dim>
				</port>
			</input>
			<output>
				<port id="2" precision="FP32" names="mobilenet_1.00_224_1/conv_dw_6_1/depthwise:0,mobilenet_1.00_224_1/conv_dw_6_bn_1/batchnorm/mul_1:0">
					<dim>1</dim>
					<dim>256</dim>
					<dim>14</dim>
					<dim>14</dim>
				</port>
			</output>
		</layer>
		<layer id="227" name="const_fold_opt__410_compressed" type="Const" version="opset1">
			<data element_type="f16" shape="1, 256, 1, 1" offset="142696" size="512" />
			<output>
				<port id="0" precision="FP16" names="const_fold_opt__410">
					<dim>1</dim>
					<dim>256</dim>
					<dim>1</dim>
					<dim>1</dim>
				</port>
			</output>
		</layer>
		<layer id="228" name="const_fold_opt__410" type="Convert" version="opset1">
			<data destination_type="f32" />
			<rt_info>
				<attribute name="decompression" version="0" />
			</rt_info>
			<input>
				<port id="0" precision="FP16">
					<dim>1</dim>
					<dim>256</dim>
					<dim>1</dim>
					<dim>1</dim>
				</port>
			</input>
			<output>
				<port id="1" precision="FP32">
					<dim>1</dim>
					<dim>256</dim>
					<dim>1</dim>
					<dim>1</dim>
				</port>
			</output>
		</layer>
		<layer id="229" name="mobilenet_1.00_224_1/conv_dw_6_bn_1/batchnorm/add_1" type="Add" version="opset1">
			<data auto_broadcast="numpy" />
			<input>
				<port id="0" precision="FP32">
					<dim>1</dim>
					<dim>256</dim>
					<dim>14</dim>
					<dim>14</dim>
				</port>
				<port id="1" precision="FP32">
					<dim>1</dim>
					<dim>256</dim>
					<dim>1</dim>
					<dim>1</dim>
				</port>
			</input>
			<output>
				<port id="2" precision="FP32" names="mobilenet_1.00_224_1/conv_dw_6_bn_1/batchnorm/add_1:0">
					<dim>1</dim>
					<dim>256</dim>
					<dim>14</dim>
					<dim>14</dim>
				</port>
			</output>
		</layer>
		<layer id="230" name="mobilenet_1.00_224_1/conv_dw_6_relu_1/Relu6" type="Clamp" version="opset1">
			<data min="0" max="6" />
			<input>
				<port id="0" precision="FP32">
					<dim>1</dim>
					<dim>256</dim>
					<dim>14</dim>
					<dim>14</dim>
				</port>
			</input>
			<output>
				<port id="1" precision="FP32" names="mobilenet_1.00_224_1/conv_dw_6_relu_1/Relu6:0">
					<dim>1</dim>
					<dim>256</dim>
					<dim>14</dim>
					<dim>14</dim>
				</port>
			</output>
		</layer>
		<layer id="231" name="mobilenet_1.00_224_1/conv_dw_6_relu_1/Relu6/fq_output_0/input_low_compressed" type="Const" version="opset1">
			<data element_type="f16" shape="" offset="1572" size="2" />
			<output>
				<port id="0" precision="FP16" />
			</output>
		</layer>
		<layer id="232" name="mobilenet_1.00_224_1/conv_dw_6_relu_1/Relu6/fq_output_0/input_low" type="Convert" version="opset1">
			<data destination_type="f32" />
			<rt_info>
				<attribute name="decompression" version="0" />
			</rt_info>
			<input>
				<port id="0" precision="FP16" />
			</input>
			<output>
				<port id="1" precision="FP32" />
			</output>
		</layer>
		<layer id="233" name="mobilenet_1.00_224_1/conv_dw_6_relu_1/Relu6/fq_output_0/input_high_compressed" type="Const" version="opset1">
			<data element_type="f16" shape="" offset="1574" size="2" />
			<output>
				<port id="0" precision="FP16" />
			</output>
		</layer>
		<layer id="234" name="mobilenet_1.00_224_1/conv_dw_6_relu_1/Relu6/fq_output_0/input_high" type="Convert" version="opset1">
			<data destination_type="f32" />
			<rt_info>
				<attribute name="decompression" version="0" />
			</rt_info>
			<input>
				<port id="0" precision="FP16" />
			</input>
			<output>
				<port id="1" precision="FP32" />
			</output>
		</layer>
		<layer id="235" name="mobilenet_1.00_224_1/conv_dw_6_relu_1/Relu6/fq_output_0/output_low_compressed" type="Const" version="opset1">
			<data element_type="f16" shape="" offset="1572" size="2" />
			<output>
				<port id="0" precision="FP16" />
			</output>
		</layer>
		<layer id="236" name="mobilenet_1.00_224_1/conv_dw_6_relu_1/Relu6/fq_output_0/output_low" type="Convert" version="opset1">
			<data destination_type="f32" />
			<rt_info>
				<attribute name="decompression" version="0" />
			</rt_info>
			<input>
				<port id="0" precision="FP16" />
			</input>
			<output>
				<port id="1" precision="FP32" />
			</output>
		</layer>
		<layer id="237" name="mobilenet_1.00_224_1/conv_dw_6_relu_1/Relu6/fq_output_0/output_high_compressed" type="Const" version="opset1">
			<data element_type="f16" shape="" offset="1574" size="2" />
			<output>
				<port id="0" precision="FP16" />
			</output>
		</layer>
		<layer id="238" name="mobilenet_1.00_224_1/conv_dw_6_relu_1/Relu6/fq_output_0/output_high" type="Convert" version="opset1">
			<data destination_type="f32" />
			<rt_info>
				<attribute name="decompression" version="0" />
			</rt_info>
			<input>
				<port id="0" precision="FP16" />
			</input>
			<output>
				<port id="1" precision="FP32" />
			</output>
		</layer>
		<layer id="239" name="mobilenet_1.00_224_1/conv_dw_6_relu_1/Relu6/fq_output_0" type="FakeQuantize" version="opset1">
			<data levels="256" auto_broadcast="numpy" />
			<input>
				<port id="0" precision="FP32">
					<dim>1</dim>
					<dim>256</dim>
					<dim>14</dim>
					<dim>14</dim>
				</port>
				<port id="1" precision="FP32" />
				<port id="2" precision="FP32" />
				<port id="3" precision="FP32" />
				<port id="4" precision="FP32" />
			</input>
			<output>
				<port id="5" precision="FP32">
					<dim>1</dim>
					<dim>256</dim>
					<dim>14</dim>
					<dim>14</dim>
				</port>
			</output>
		</layer>
		<layer id="240" name="Constant_67944" type="Const" version="opset1">
			<data element_type="i8" shape="512, 256, 1, 1" offset="143208" size="131072" />
			<output>
				<port id="0" precision="I8">
					<dim>512</dim>
					<dim>256</dim>
					<dim>1</dim>
					<dim>1</dim>
				</port>
			</output>
		</layer>
		<layer id="241" name="Convert_67945" type="Convert" version="opset1">
			<data destination_type="f32" />
			<input>
				<port id="0" precision="I8">
					<dim>512</dim>
					<dim>256</dim>
					<dim>1</dim>
					<dim>1</dim>
				</port>
			</input>
			<output>
				<port id="1" precision="FP32">
					<dim>512</dim>
					<dim>256</dim>
					<dim>1</dim>
					<dim>1</dim>
				</port>
			</output>
		</layer>
		<layer id="242" name="Constant_67946_compressed" type="Const" version="opset1">
			<data element_type="f16" shape="512, 1, 1, 1" offset="274280" size="1024" />
			<output>
				<port id="0" precision="FP16">
					<dim>512</dim>
					<dim>1</dim>
					<dim>1</dim>
					<dim>1</dim>
				</port>
			</output>
		</layer>
		<layer id="243" name="Constant_67946" type="Convert" version="opset1">
			<data destination_type="f32" />
			<rt_info>
				<attribute name="decompression" version="0" />
			</rt_info>
			<input>
				<port id="0" precision="FP16">
					<dim>512</dim>
					<dim>1</dim>
					<dim>1</dim>
					<dim>1</dim>
				</port>
			</input>
			<output>
				<port id="1" precision="FP32">
					<dim>512</dim>
					<dim>1</dim>
					<dim>1</dim>
					<dim>1</dim>
				</port>
			</output>
		</layer>
		<layer id="244" name="Conv__287/WithoutBiases/fq_weights_1" type="Multiply" version="opset1">
			<data auto_broadcast="numpy" />
			<input>
				<port id="0" precision="FP32">
					<dim>512</dim>
					<dim>256</dim>
					<dim>1</dim>
					<dim>1</dim>
				</port>
				<port id="1" precision="FP32">
					<dim>512</dim>
					<dim>1</dim>
					<dim>1</dim>
					<dim>1</dim>
				</port>
			</input>
			<output>
				<port id="2" precision="FP32">
					<dim>512</dim>
					<dim>256</dim>
					<dim>1</dim>
					<dim>1</dim>
				</port>
			</output>
		</layer>
		<layer id="245" name="Conv__287/WithoutBiases" type="Convolution" version="opset1">
			<data strides="1, 1" dilations="1, 1" pads_begin="0, 0" pads_end="0, 0" auto_pad="explicit" />
			<input>
				<port id="0" precision="FP32">
					<dim>1</dim>
					<dim>256</dim>
					<dim>14</dim>
					<dim>14</dim>
				</port>
				<port id="1" precision="FP32">
					<dim>512</dim>
					<dim>256</dim>
					<dim>1</dim>
					<dim>1</dim>
				</port>
			</input>
			<output>
				<port id="2" precision="FP32">
					<dim>1</dim>
					<dim>512</dim>
					<dim>14</dim>
					<dim>14</dim>
				</port>
			</output>
		</layer>
		<layer id="246" name="Reshape_528_compressed" type="Const" version="opset1">
			<data element_type="f16" shape="1, 512, 1, 1" offset="275304" size="1024" />
			<output>
				<port id="0" precision="FP16">
					<dim>1</dim>
					<dim>512</dim>
					<dim>1</dim>
					<dim>1</dim>
				</port>
			</output>
		</layer>
		<layer id="247" name="Reshape_528" type="Convert" version="opset1">
			<data destination_type="f32" />
			<rt_info>
				<attribute name="decompression" version="0" />
			</rt_info>
			<input>
				<port id="0" precision="FP16">
					<dim>1</dim>
					<dim>512</dim>
					<dim>1</dim>
					<dim>1</dim>
				</port>
			</input>
			<output>
				<port id="1" precision="FP32">
					<dim>1</dim>
					<dim>512</dim>
					<dim>1</dim>
					<dim>1</dim>
				</port>
			</output>
		</layer>
		<layer id="248" name="Conv__287" type="Add" version="opset1">
			<data auto_broadcast="numpy" />
			<input>
				<port id="0" precision="FP32">
					<dim>1</dim>
					<dim>512</dim>
					<dim>14</dim>
					<dim>14</dim>
				</port>
				<port id="1" precision="FP32">
					<dim>1</dim>
					<dim>512</dim>
					<dim>1</dim>
					<dim>1</dim>
				</port>
			</input>
			<output>
				<port id="2" precision="FP32" names="Conv__287:0">
					<dim>1</dim>
					<dim>512</dim>
					<dim>14</dim>
					<dim>14</dim>
				</port>
			</output>
		</layer>
		<layer id="249" name="mobilenet_1.00_224_1/conv_pw_6_relu_1/Relu6" type="Clamp" version="opset1">
			<data min="0" max="6" />
			<input>
				<port id="0" precision="FP32">
					<dim>1</dim>
					<dim>512</dim>
					<dim>14</dim>
					<dim>14</dim>
				</port>
			</input>
			<output>
				<port id="1" precision="FP32" names="mobilenet_1.00_224_1/conv_pw_6_relu_1/Relu6:0">
					<dim>1</dim>
					<dim>512</dim>
					<dim>14</dim>
					<dim>14</dim>
				</port>
			</output>
		</layer>
		<layer id="250" name="mobilenet_1.00_224_1/conv_pw_6_relu_1/Relu6/fq_output_0/input_low_compressed" type="Const" version="opset1">
			<data element_type="f16" shape="1, 512, 1, 1" offset="276328" size="1024" />
			<output>
				<port id="0" precision="FP16">
					<dim>1</dim>
					<dim>512</dim>
					<dim>1</dim>
					<dim>1</dim>
				</port>
			</output>
		</layer>
		<layer id="251" name="mobilenet_1.00_224_1/conv_pw_6_relu_1/Relu6/fq_output_0/input_low" type="Convert" version="opset1">
			<data destination_type="f32" />
			<rt_info>
				<attribute name="decompression" version="0" />
			</rt_info>
			<input>
				<port id="0" precision="FP16">
					<dim>1</dim>
					<dim>512</dim>
					<dim>1</dim>
					<dim>1</dim>
				</port>
			</input>
			<output>
				<port id="1" precision="FP32">
					<dim>1</dim>
					<dim>512</dim>
					<dim>1</dim>
					<dim>1</dim>
				</port>
			</output>
		</layer>
		<layer id="252" name="mobilenet_1.00_224_1/conv_pw_6_relu_1/Relu6/fq_output_0/input_high_compressed" type="Const" version="opset1">
			<data element_type="f16" shape="1, 512, 1, 1" offset="277352" size="1024" />
			<output>
				<port id="0" precision="FP16">
					<dim>1</dim>
					<dim>512</dim>
					<dim>1</dim>
					<dim>1</dim>
				</port>
			</output>
		</layer>
		<layer id="253" name="mobilenet_1.00_224_1/conv_pw_6_relu_1/Relu6/fq_output_0/input_high" type="Convert" version="opset1">
			<data destination_type="f32" />
			<rt_info>
				<attribute name="decompression" version="0" />
			</rt_info>
			<input>
				<port id="0" precision="FP16">
					<dim>1</dim>
					<dim>512</dim>
					<dim>1</dim>
					<dim>1</dim>
				</port>
			</input>
			<output>
				<port id="1" precision="FP32">
					<dim>1</dim>
					<dim>512</dim>
					<dim>1</dim>
					<dim>1</dim>
				</port>
			</output>
		</layer>
		<layer id="254" name="mobilenet_1.00_224_1/conv_pw_6_relu_1/Relu6/fq_output_0/output_low_compressed" type="Const" version="opset1">
			<data element_type="f16" shape="1, 512, 1, 1" offset="276328" size="1024" />
			<output>
				<port id="0" precision="FP16">
					<dim>1</dim>
					<dim>512</dim>
					<dim>1</dim>
					<dim>1</dim>
				</port>
			</output>
		</layer>
		<layer id="255" name="mobilenet_1.00_224_1/conv_pw_6_relu_1/Relu6/fq_output_0/output_low" type="Convert" version="opset1">
			<data destination_type="f32" />
			<rt_info>
				<attribute name="decompression" version="0" />
			</rt_info>
			<input>
				<port id="0" precision="FP16">
					<dim>1</dim>
					<dim>512</dim>
					<dim>1</dim>
					<dim>1</dim>
				</port>
			</input>
			<output>
				<port id="1" precision="FP32">
					<dim>1</dim>
					<dim>512</dim>
					<dim>1</dim>
					<dim>1</dim>
				</port>
			</output>
		</layer>
		<layer id="256" name="mobilenet_1.00_224_1/conv_pw_6_relu_1/Relu6/fq_output_0/output_high_compressed" type="Const" version="opset1">
			<data element_type="f16" shape="1, 512, 1, 1" offset="277352" size="1024" />
			<output>
				<port id="0" precision="FP16">
					<dim>1</dim>
					<dim>512</dim>
					<dim>1</dim>
					<dim>1</dim>
				</port>
			</output>
		</layer>
		<layer id="257" name="mobilenet_1.00_224_1/conv_pw_6_relu_1/Relu6/fq_output_0/output_high" type="Convert" version="opset1">
			<data destination_type="f32" />
			<rt_info>
				<attribute name="decompression" version="0" />
			</rt_info>
			<input>
				<port id="0" precision="FP16">
					<dim>1</dim>
					<dim>512</dim>
					<dim>1</dim>
					<dim>1</dim>
				</port>
			</input>
			<output>
				<port id="1" precision="FP32">
					<dim>1</dim>
					<dim>512</dim>
					<dim>1</dim>
					<dim>1</dim>
				</port>
			</output>
		</layer>
		<layer id="258" name="mobilenet_1.00_224_1/conv_pw_6_relu_1/Relu6/fq_output_0" type="FakeQuantize" version="opset1">
			<data levels="256" auto_broadcast="numpy" />
			<input>
				<port id="0" precision="FP32">
					<dim>1</dim>
					<dim>512</dim>
					<dim>14</dim>
					<dim>14</dim>
				</port>
				<port id="1" precision="FP32">
					<dim>1</dim>
					<dim>512</dim>
					<dim>1</dim>
					<dim>1</dim>
				</port>
				<port id="2" precision="FP32">
					<dim>1</dim>
					<dim>512</dim>
					<dim>1</dim>
					<dim>1</dim>
				</port>
				<port id="3" precision="FP32">
					<dim>1</dim>
					<dim>512</dim>
					<dim>1</dim>
					<dim>1</dim>
				</port>
				<port id="4" precision="FP32">
					<dim>1</dim>
					<dim>512</dim>
					<dim>1</dim>
					<dim>1</dim>
				</port>
			</input>
			<output>
				<port id="5" precision="FP32">
					<dim>1</dim>
					<dim>512</dim>
					<dim>14</dim>
					<dim>14</dim>
				</port>
			</output>
		</layer>
		<layer id="259" name="Constant_67948" type="Const" version="opset1">
			<data element_type="i8" shape="512, 1, 1, 3, 3" offset="278376" size="4608" />
			<output>
				<port id="0" precision="I8">
					<dim>512</dim>
					<dim>1</dim>
					<dim>1</dim>
					<dim>3</dim>
					<dim>3</dim>
				</port>
			</output>
		</layer>
		<layer id="260" name="Convert_67949" type="Convert" version="opset1">
			<data destination_type="f32" />
			<input>
				<port id="0" precision="I8">
					<dim>512</dim>
					<dim>1</dim>
					<dim>1</dim>
					<dim>3</dim>
					<dim>3</dim>
				</port>
			</input>
			<output>
				<port id="1" precision="FP32">
					<dim>512</dim>
					<dim>1</dim>
					<dim>1</dim>
					<dim>3</dim>
					<dim>3</dim>
				</port>
			</output>
		</layer>
		<layer id="261" name="Constant_67950_compressed" type="Const" version="opset1">
			<data element_type="f16" shape="512, 1, 1, 1, 1" offset="282984" size="1024" />
			<output>
				<port id="0" precision="FP16">
					<dim>512</dim>
					<dim>1</dim>
					<dim>1</dim>
					<dim>1</dim>
					<dim>1</dim>
				</port>
			</output>
		</layer>
		<layer id="262" name="Constant_67950" type="Convert" version="opset1">
			<data destination_type="f32" />
			<rt_info>
				<attribute name="decompression" version="0" />
			</rt_info>
			<input>
				<port id="0" precision="FP16">
					<dim>512</dim>
					<dim>1</dim>
					<dim>1</dim>
					<dim>1</dim>
					<dim>1</dim>
				</port>
			</input>
			<output>
				<port id="1" precision="FP32">
					<dim>512</dim>
					<dim>1</dim>
					<dim>1</dim>
					<dim>1</dim>
					<dim>1</dim>
				</port>
			</output>
		</layer>
		<layer id="263" name="mobilenet_1.00_224_1/conv_dw_7_bn_1/batchnorm/mul_1/fq_weights_1" type="Multiply" version="opset1">
			<data auto_broadcast="numpy" />
			<input>
				<port id="0" precision="FP32">
					<dim>512</dim>
					<dim>1</dim>
					<dim>1</dim>
					<dim>3</dim>
					<dim>3</dim>
				</port>
				<port id="1" precision="FP32">
					<dim>512</dim>
					<dim>1</dim>
					<dim>1</dim>
					<dim>1</dim>
					<dim>1</dim>
				</port>
			</input>
			<output>
				<port id="2" precision="FP32">
					<dim>512</dim>
					<dim>1</dim>
					<dim>1</dim>
					<dim>3</dim>
					<dim>3</dim>
				</port>
			</output>
		</layer>
		<layer id="264" name="mobilenet_1.00_224_1/conv_dw_7_bn_1/batchnorm/mul_1" type="GroupConvolution" version="opset1">
			<data strides="1, 1" pads_begin="1, 1" pads_end="1, 1" dilations="1, 1" auto_pad="explicit" />
			<input>
				<port id="0" precision="FP32">
					<dim>1</dim>
					<dim>512</dim>
					<dim>14</dim>
					<dim>14</dim>
				</port>
				<port id="1" precision="FP32">
					<dim>512</dim>
					<dim>1</dim>
					<dim>1</dim>
					<dim>3</dim>
					<dim>3</dim>
				</port>
			</input>
			<output>
				<port id="2" precision="FP32" names="mobilenet_1.00_224_1/conv_dw_7_1/depthwise:0,mobilenet_1.00_224_1/conv_dw_7_bn_1/batchnorm/mul_1:0">
					<dim>1</dim>
					<dim>512</dim>
					<dim>14</dim>
					<dim>14</dim>
				</port>
			</output>
		</layer>
		<layer id="265" name="const_fold_opt__412_compressed" type="Const" version="opset1">
			<data element_type="f16" shape="1, 512, 1, 1" offset="284008" size="1024" />
			<output>
				<port id="0" precision="FP16" names="const_fold_opt__412">
					<dim>1</dim>
					<dim>512</dim>
					<dim>1</dim>
					<dim>1</dim>
				</port>
			</output>
		</layer>
		<layer id="266" name="const_fold_opt__412" type="Convert" version="opset1">
			<data destination_type="f32" />
			<rt_info>
				<attribute name="decompression" version="0" />
			</rt_info>
			<input>
				<port id="0" precision="FP16">
					<dim>1</dim>
					<dim>512</dim>
					<dim>1</dim>
					<dim>1</dim>
				</port>
			</input>
			<output>
				<port id="1" precision="FP32">
					<dim>1</dim>
					<dim>512</dim>
					<dim>1</dim>
					<dim>1</dim>
				</port>
			</output>
		</layer>
		<layer id="267" name="mobilenet_1.00_224_1/conv_dw_7_bn_1/batchnorm/add_1" type="Add" version="opset1">
			<data auto_broadcast="numpy" />
			<input>
				<port id="0" precision="FP32">
					<dim>1</dim>
					<dim>512</dim>
					<dim>14</dim>
					<dim>14</dim>
				</port>
				<port id="1" precision="FP32">
					<dim>1</dim>
					<dim>512</dim>
					<dim>1</dim>
					<dim>1</dim>
				</port>
			</input>
			<output>
				<port id="2" precision="FP32" names="mobilenet_1.00_224_1/conv_dw_7_bn_1/batchnorm/add_1:0">
					<dim>1</dim>
					<dim>512</dim>
					<dim>14</dim>
					<dim>14</dim>
				</port>
			</output>
		</layer>
		<layer id="268" name="mobilenet_1.00_224_1/conv_dw_7_relu_1/Relu6" type="Clamp" version="opset1">
			<data min="0" max="6" />
			<input>
				<port id="0" precision="FP32">
					<dim>1</dim>
					<dim>512</dim>
					<dim>14</dim>
					<dim>14</dim>
				</port>
			</input>
			<output>
				<port id="1" precision="FP32" names="mobilenet_1.00_224_1/conv_dw_7_relu_1/Relu6:0">
					<dim>1</dim>
					<dim>512</dim>
					<dim>14</dim>
					<dim>14</dim>
				</port>
			</output>
		</layer>
		<layer id="269" name="mobilenet_1.00_224_1/conv_dw_7_relu_1/Relu6/fq_output_0/input_low_compressed" type="Const" version="opset1">
			<data element_type="f16" shape="" offset="1572" size="2" />
			<output>
				<port id="0" precision="FP16" />
			</output>
		</layer>
		<layer id="270" name="mobilenet_1.00_224_1/conv_dw_7_relu_1/Relu6/fq_output_0/input_low" type="Convert" version="opset1">
			<data destination_type="f32" />
			<rt_info>
				<attribute name="decompression" version="0" />
			</rt_info>
			<input>
				<port id="0" precision="FP16" />
			</input>
			<output>
				<port id="1" precision="FP32" />
			</output>
		</layer>
		<layer id="271" name="mobilenet_1.00_224_1/conv_dw_7_relu_1/Relu6/fq_output_0/input_high_compressed" type="Const" version="opset1">
			<data element_type="f16" shape="" offset="1574" size="2" />
			<output>
				<port id="0" precision="FP16" />
			</output>
		</layer>
		<layer id="272" name="mobilenet_1.00_224_1/conv_dw_7_relu_1/Relu6/fq_output_0/input_high" type="Convert" version="opset1">
			<data destination_type="f32" />
			<rt_info>
				<attribute name="decompression" version="0" />
			</rt_info>
			<input>
				<port id="0" precision="FP16" />
			</input>
			<output>
				<port id="1" precision="FP32" />
			</output>
		</layer>
		<layer id="273" name="mobilenet_1.00_224_1/conv_dw_7_relu_1/Relu6/fq_output_0/output_low_compressed" type="Const" version="opset1">
			<data element_type="f16" shape="" offset="1572" size="2" />
			<output>
				<port id="0" precision="FP16" />
			</output>
		</layer>
		<layer id="274" name="mobilenet_1.00_224_1/conv_dw_7_relu_1/Relu6/fq_output_0/output_low" type="Convert" version="opset1">
			<data destination_type="f32" />
			<rt_info>
				<attribute name="decompression" version="0" />
			</rt_info>
			<input>
				<port id="0" precision="FP16" />
			</input>
			<output>
				<port id="1" precision="FP32" />
			</output>
		</layer>
		<layer id="275" name="mobilenet_1.00_224_1/conv_dw_7_relu_1/Relu6/fq_output_0/output_high_compressed" type="Const" version="opset1">
			<data element_type="f16" shape="" offset="1574" size="2" />
			<output>
				<port id="0" precision="FP16" />
			</output>
		</layer>
		<layer id="276" name="mobilenet_1.00_224_1/conv_dw_7_relu_1/Relu6/fq_output_0/output_high" type="Convert" version="opset1">
			<data destination_type="f32" />
			<rt_info>
				<attribute name="decompression" version="0" />
			</rt_info>
			<input>
				<port id="0" precision="FP16" />
			</input>
			<output>
				<port id="1" precision="FP32" />
			</output>
		</layer>
		<layer id="277" name="mobilenet_1.00_224_1/conv_dw_7_relu_1/Relu6/fq_output_0" type="FakeQuantize" version="opset1">
			<data levels="256" auto_broadcast="numpy" />
			<input>
				<port id="0" precision="FP32">
					<dim>1</dim>
					<dim>512</dim>
					<dim>14</dim>
					<dim>14</dim>
				</port>
				<port id="1" precision="FP32" />
				<port id="2" precision="FP32" />
				<port id="3" precision="FP32" />
				<port id="4" precision="FP32" />
			</input>
			<output>
				<port id="5" precision="FP32">
					<dim>1</dim>
					<dim>512</dim>
					<dim>14</dim>
					<dim>14</dim>
				</port>
			</output>
		</layer>
		<layer id="278" name="Constant_67952" type="Const" version="opset1">
			<data element_type="i8" shape="512, 512, 1, 1" offset="285032" size="262144" />
			<output>
				<port id="0" precision="I8">
					<dim>512</dim>
					<dim>512</dim>
					<dim>1</dim>
					<dim>1</dim>
				</port>
			</output>
		</layer>
		<layer id="279" name="Convert_67953" type="Convert" version="opset1">
			<data destination_type="f32" />
			<input>
				<port id="0" precision="I8">
					<dim>512</dim>
					<dim>512</dim>
					<dim>1</dim>
					<dim>1</dim>
				</port>
			</input>
			<output>
				<port id="1" precision="FP32">
					<dim>512</dim>
					<dim>512</dim>
					<dim>1</dim>
					<dim>1</dim>
				</port>
			</output>
		</layer>
		<layer id="280" name="Constant_67954_compressed" type="Const" version="opset1">
			<data element_type="f16" shape="512, 1, 1, 1" offset="547176" size="1024" />
			<output>
				<port id="0" precision="FP16">
					<dim>512</dim>
					<dim>1</dim>
					<dim>1</dim>
					<dim>1</dim>
				</port>
			</output>
		</layer>
		<layer id="281" name="Constant_67954" type="Convert" version="opset1">
			<data destination_type="f32" />
			<rt_info>
				<attribute name="decompression" version="0" />
			</rt_info>
			<input>
				<port id="0" precision="FP16">
					<dim>512</dim>
					<dim>1</dim>
					<dim>1</dim>
					<dim>1</dim>
				</port>
			</input>
			<output>
				<port id="1" precision="FP32">
					<dim>512</dim>
					<dim>1</dim>
					<dim>1</dim>
					<dim>1</dim>
				</port>
			</output>
		</layer>
		<layer id="282" name="Conv__297/WithoutBiases/fq_weights_1" type="Multiply" version="opset1">
			<data auto_broadcast="numpy" />
			<input>
				<port id="0" precision="FP32">
					<dim>512</dim>
					<dim>512</dim>
					<dim>1</dim>
					<dim>1</dim>
				</port>
				<port id="1" precision="FP32">
					<dim>512</dim>
					<dim>1</dim>
					<dim>1</dim>
					<dim>1</dim>
				</port>
			</input>
			<output>
				<port id="2" precision="FP32">
					<dim>512</dim>
					<dim>512</dim>
					<dim>1</dim>
					<dim>1</dim>
				</port>
			</output>
		</layer>
		<layer id="283" name="Conv__297/WithoutBiases" type="Convolution" version="opset1">
			<data strides="1, 1" dilations="1, 1" pads_begin="0, 0" pads_end="0, 0" auto_pad="explicit" />
			<input>
				<port id="0" precision="FP32">
					<dim>1</dim>
					<dim>512</dim>
					<dim>14</dim>
					<dim>14</dim>
				</port>
				<port id="1" precision="FP32">
					<dim>512</dim>
					<dim>512</dim>
					<dim>1</dim>
					<dim>1</dim>
				</port>
			</input>
			<output>
				<port id="2" precision="FP32">
					<dim>1</dim>
					<dim>512</dim>
					<dim>14</dim>
					<dim>14</dim>
				</port>
			</output>
		</layer>
		<layer id="284" name="Reshape_599_compressed" type="Const" version="opset1">
			<data element_type="f16" shape="1, 512, 1, 1" offset="548200" size="1024" />
			<output>
				<port id="0" precision="FP16">
					<dim>1</dim>
					<dim>512</dim>
					<dim>1</dim>
					<dim>1</dim>
				</port>
			</output>
		</layer>
		<layer id="285" name="Reshape_599" type="Convert" version="opset1">
			<data destination_type="f32" />
			<rt_info>
				<attribute name="decompression" version="0" />
			</rt_info>
			<input>
				<port id="0" precision="FP16">
					<dim>1</dim>
					<dim>512</dim>
					<dim>1</dim>
					<dim>1</dim>
				</port>
			</input>
			<output>
				<port id="1" precision="FP32">
					<dim>1</dim>
					<dim>512</dim>
					<dim>1</dim>
					<dim>1</dim>
				</port>
			</output>
		</layer>
		<layer id="286" name="Conv__297" type="Add" version="opset1">
			<data auto_broadcast="numpy" />
			<input>
				<port id="0" precision="FP32">
					<dim>1</dim>
					<dim>512</dim>
					<dim>14</dim>
					<dim>14</dim>
				</port>
				<port id="1" precision="FP32">
					<dim>1</dim>
					<dim>512</dim>
					<dim>1</dim>
					<dim>1</dim>
				</port>
			</input>
			<output>
				<port id="2" precision="FP32" names="Conv__297:0">
					<dim>1</dim>
					<dim>512</dim>
					<dim>14</dim>
					<dim>14</dim>
				</port>
			</output>
		</layer>
		<layer id="287" name="mobilenet_1.00_224_1/conv_pw_7_relu_1/Relu6" type="Clamp" version="opset1">
			<data min="0" max="6" />
			<input>
				<port id="0" precision="FP32">
					<dim>1</dim>
					<dim>512</dim>
					<dim>14</dim>
					<dim>14</dim>
				</port>
			</input>
			<output>
				<port id="1" precision="FP32" names="mobilenet_1.00_224_1/conv_pw_7_relu_1/Relu6:0">
					<dim>1</dim>
					<dim>512</dim>
					<dim>14</dim>
					<dim>14</dim>
				</port>
			</output>
		</layer>
		<layer id="288" name="mobilenet_1.00_224_1/conv_pw_7_relu_1/Relu6/fq_output_0/input_low_compressed" type="Const" version="opset1">
			<data element_type="f16" shape="1, 512, 1, 1" offset="276328" size="1024" />
			<output>
				<port id="0" precision="FP16">
					<dim>1</dim>
					<dim>512</dim>
					<dim>1</dim>
					<dim>1</dim>
				</port>
			</output>
		</layer>
		<layer id="289" name="mobilenet_1.00_224_1/conv_pw_7_relu_1/Relu6/fq_output_0/input_low" type="Convert" version="opset1">
			<data destination_type="f32" />
			<rt_info>
				<attribute name="decompression" version="0" />
			</rt_info>
			<input>
				<port id="0" precision="FP16">
					<dim>1</dim>
					<dim>512</dim>
					<dim>1</dim>
					<dim>1</dim>
				</port>
			</input>
			<output>
				<port id="1" precision="FP32">
					<dim>1</dim>
					<dim>512</dim>
					<dim>1</dim>
					<dim>1</dim>
				</port>
			</output>
		</layer>
		<layer id="290" name="mobilenet_1.00_224_1/conv_pw_7_relu_1/Relu6/fq_output_0/input_high_compressed" type="Const" version="opset1">
			<data element_type="f16" shape="1, 512, 1, 1" offset="549224" size="1024" />
			<output>
				<port id="0" precision="FP16">
					<dim>1</dim>
					<dim>512</dim>
					<dim>1</dim>
					<dim>1</dim>
				</port>
			</output>
		</layer>
		<layer id="291" name="mobilenet_1.00_224_1/conv_pw_7_relu_1/Relu6/fq_output_0/input_high" type="Convert" version="opset1">
			<data destination_type="f32" />
			<rt_info>
				<attribute name="decompression" version="0" />
			</rt_info>
			<input>
				<port id="0" precision="FP16">
					<dim>1</dim>
					<dim>512</dim>
					<dim>1</dim>
					<dim>1</dim>
				</port>
			</input>
			<output>
				<port id="1" precision="FP32">
					<dim>1</dim>
					<dim>512</dim>
					<dim>1</dim>
					<dim>1</dim>
				</port>
			</output>
		</layer>
		<layer id="292" name="mobilenet_1.00_224_1/conv_pw_7_relu_1/Relu6/fq_output_0/output_low_compressed" type="Const" version="opset1">
			<data element_type="f16" shape="1, 512, 1, 1" offset="276328" size="1024" />
			<output>
				<port id="0" precision="FP16">
					<dim>1</dim>
					<dim>512</dim>
					<dim>1</dim>
					<dim>1</dim>
				</port>
			</output>
		</layer>
		<layer id="293" name="mobilenet_1.00_224_1/conv_pw_7_relu_1/Relu6/fq_output_0/output_low" type="Convert" version="opset1">
			<data destination_type="f32" />
			<rt_info>
				<attribute name="decompression" version="0" />
			</rt_info>
			<input>
				<port id="0" precision="FP16">
					<dim>1</dim>
					<dim>512</dim>
					<dim>1</dim>
					<dim>1</dim>
				</port>
			</input>
			<output>
				<port id="1" precision="FP32">
					<dim>1</dim>
					<dim>512</dim>
					<dim>1</dim>
					<dim>1</dim>
				</port>
			</output>
		</layer>
		<layer id="294" name="mobilenet_1.00_224_1/conv_pw_7_relu_1/Relu6/fq_output_0/output_high_compressed" type="Const" version="opset1">
			<data element_type="f16" shape="1, 512, 1, 1" offset="549224" size="1024" />
			<output>
				<port id="0" precision="FP16">
					<dim>1</dim>
					<dim>512</dim>
					<dim>1</dim>
					<dim>1</dim>
				</port>
			</output>
		</layer>
		<layer id="295" name="mobilenet_1.00_224_1/conv_pw_7_relu_1/Relu6/fq_output_0/output_high" type="Convert" version="opset1">
			<data destination_type="f32" />
			<rt_info>
				<attribute name="decompression" version="0" />
			</rt_info>
			<input>
				<port id="0" precision="FP16">
					<dim>1</dim>
					<dim>512</dim>
					<dim>1</dim>
					<dim>1</dim>
				</port>
			</input>
			<output>
				<port id="1" precision="FP32">
					<dim>1</dim>
					<dim>512</dim>
					<dim>1</dim>
					<dim>1</dim>
				</port>
			</output>
		</layer>
		<layer id="296" name="mobilenet_1.00_224_1/conv_pw_7_relu_1/Relu6/fq_output_0" type="FakeQuantize" version="opset1">
			<data levels="256" auto_broadcast="numpy" />
			<input>
				<port id="0" precision="FP32">
					<dim>1</dim>
					<dim>512</dim>
					<dim>14</dim>
					<dim>14</dim>
				</port>
				<port id="1" precision="FP32">
					<dim>1</dim>
					<dim>512</dim>
					<dim>1</dim>
					<dim>1</dim>
				</port>
				<port id="2" precision="FP32">
					<dim>1</dim>
					<dim>512</dim>
					<dim>1</dim>
					<dim>1</dim>
				</port>
				<port id="3" precision="FP32">
					<dim>1</dim>
					<dim>512</dim>
					<dim>1</dim>
					<dim>1</dim>
				</port>
				<port id="4" precision="FP32">
					<dim>1</dim>
					<dim>512</dim>
					<dim>1</dim>
					<dim>1</dim>
				</port>
			</input>
			<output>
				<port id="5" precision="FP32">
					<dim>1</dim>
					<dim>512</dim>
					<dim>14</dim>
					<dim>14</dim>
				</port>
			</output>
		</layer>
		<layer id="297" name="Constant_67956" type="Const" version="opset1">
			<data element_type="i8" shape="512, 1, 1, 3, 3" offset="550248" size="4608" />
			<output>
				<port id="0" precision="I8">
					<dim>512</dim>
					<dim>1</dim>
					<dim>1</dim>
					<dim>3</dim>
					<dim>3</dim>
				</port>
			</output>
		</layer>
		<layer id="298" name="Convert_67957" type="Convert" version="opset1">
			<data destination_type="f32" />
			<input>
				<port id="0" precision="I8">
					<dim>512</dim>
					<dim>1</dim>
					<dim>1</dim>
					<dim>3</dim>
					<dim>3</dim>
				</port>
			</input>
			<output>
				<port id="1" precision="FP32">
					<dim>512</dim>
					<dim>1</dim>
					<dim>1</dim>
					<dim>3</dim>
					<dim>3</dim>
				</port>
			</output>
		</layer>
		<layer id="299" name="Constant_67958_compressed" type="Const" version="opset1">
			<data element_type="f16" shape="512, 1, 1, 1, 1" offset="554856" size="1024" />
			<output>
				<port id="0" precision="FP16">
					<dim>512</dim>
					<dim>1</dim>
					<dim>1</dim>
					<dim>1</dim>
					<dim>1</dim>
				</port>
			</output>
		</layer>
		<layer id="300" name="Constant_67958" type="Convert" version="opset1">
			<data destination_type="f32" />
			<rt_info>
				<attribute name="decompression" version="0" />
			</rt_info>
			<input>
				<port id="0" precision="FP16">
					<dim>512</dim>
					<dim>1</dim>
					<dim>1</dim>
					<dim>1</dim>
					<dim>1</dim>
				</port>
			</input>
			<output>
				<port id="1" precision="FP32">
					<dim>512</dim>
					<dim>1</dim>
					<dim>1</dim>
					<dim>1</dim>
					<dim>1</dim>
				</port>
			</output>
		</layer>
		<layer id="301" name="mobilenet_1.00_224_1/conv_dw_8_bn_1/batchnorm/mul_1/fq_weights_1" type="Multiply" version="opset1">
			<data auto_broadcast="numpy" />
			<input>
				<port id="0" precision="FP32">
					<dim>512</dim>
					<dim>1</dim>
					<dim>1</dim>
					<dim>3</dim>
					<dim>3</dim>
				</port>
				<port id="1" precision="FP32">
					<dim>512</dim>
					<dim>1</dim>
					<dim>1</dim>
					<dim>1</dim>
					<dim>1</dim>
				</port>
			</input>
			<output>
				<port id="2" precision="FP32">
					<dim>512</dim>
					<dim>1</dim>
					<dim>1</dim>
					<dim>3</dim>
					<dim>3</dim>
				</port>
			</output>
		</layer>
		<layer id="302" name="mobilenet_1.00_224_1/conv_dw_8_bn_1/batchnorm/mul_1" type="GroupConvolution" version="opset1">
			<data strides="1, 1" pads_begin="1, 1" pads_end="1, 1" dilations="1, 1" auto_pad="explicit" />
			<input>
				<port id="0" precision="FP32">
					<dim>1</dim>
					<dim>512</dim>
					<dim>14</dim>
					<dim>14</dim>
				</port>
				<port id="1" precision="FP32">
					<dim>512</dim>
					<dim>1</dim>
					<dim>1</dim>
					<dim>3</dim>
					<dim>3</dim>
				</port>
			</input>
			<output>
				<port id="2" precision="FP32" names="mobilenet_1.00_224_1/conv_dw_8_1/depthwise:0,mobilenet_1.00_224_1/conv_dw_8_bn_1/batchnorm/mul_1:0">
					<dim>1</dim>
					<dim>512</dim>
					<dim>14</dim>
					<dim>14</dim>
				</port>
			</output>
		</layer>
		<layer id="303" name="const_fold_opt__414_compressed" type="Const" version="opset1">
			<data element_type="f16" shape="1, 512, 1, 1" offset="555880" size="1024" />
			<output>
				<port id="0" precision="FP16" names="const_fold_opt__414">
					<dim>1</dim>
					<dim>512</dim>
					<dim>1</dim>
					<dim>1</dim>
				</port>
			</output>
		</layer>
		<layer id="304" name="const_fold_opt__414" type="Convert" version="opset1">
			<data destination_type="f32" />
			<rt_info>
				<attribute name="decompression" version="0" />
			</rt_info>
			<input>
				<port id="0" precision="FP16">
					<dim>1</dim>
					<dim>512</dim>
					<dim>1</dim>
					<dim>1</dim>
				</port>
			</input>
			<output>
				<port id="1" precision="FP32">
					<dim>1</dim>
					<dim>512</dim>
					<dim>1</dim>
					<dim>1</dim>
				</port>
			</output>
		</layer>
		<layer id="305" name="mobilenet_1.00_224_1/conv_dw_8_bn_1/batchnorm/add_1" type="Add" version="opset1">
			<data auto_broadcast="numpy" />
			<input>
				<port id="0" precision="FP32">
					<dim>1</dim>
					<dim>512</dim>
					<dim>14</dim>
					<dim>14</dim>
				</port>
				<port id="1" precision="FP32">
					<dim>1</dim>
					<dim>512</dim>
					<dim>1</dim>
					<dim>1</dim>
				</port>
			</input>
			<output>
				<port id="2" precision="FP32" names="mobilenet_1.00_224_1/conv_dw_8_bn_1/batchnorm/add_1:0">
					<dim>1</dim>
					<dim>512</dim>
					<dim>14</dim>
					<dim>14</dim>
				</port>
			</output>
		</layer>
		<layer id="306" name="mobilenet_1.00_224_1/conv_dw_8_relu_1/Relu6" type="Clamp" version="opset1">
			<data min="0" max="6" />
			<input>
				<port id="0" precision="FP32">
					<dim>1</dim>
					<dim>512</dim>
					<dim>14</dim>
					<dim>14</dim>
				</port>
			</input>
			<output>
				<port id="1" precision="FP32" names="mobilenet_1.00_224_1/conv_dw_8_relu_1/Relu6:0">
					<dim>1</dim>
					<dim>512</dim>
					<dim>14</dim>
					<dim>14</dim>
				</port>
			</output>
		</layer>
		<layer id="307" name="mobilenet_1.00_224_1/conv_dw_8_relu_1/Relu6/fq_output_0/input_low_compressed" type="Const" version="opset1">
			<data element_type="f16" shape="" offset="1572" size="2" />
			<output>
				<port id="0" precision="FP16" />
			</output>
		</layer>
		<layer id="308" name="mobilenet_1.00_224_1/conv_dw_8_relu_1/Relu6/fq_output_0/input_low" type="Convert" version="opset1">
			<data destination_type="f32" />
			<rt_info>
				<attribute name="decompression" version="0" />
			</rt_info>
			<input>
				<port id="0" precision="FP16" />
			</input>
			<output>
				<port id="1" precision="FP32" />
			</output>
		</layer>
		<layer id="309" name="mobilenet_1.00_224_1/conv_dw_8_relu_1/Relu6/fq_output_0/input_high_compressed" type="Const" version="opset1">
			<data element_type="f16" shape="" offset="1574" size="2" />
			<output>
				<port id="0" precision="FP16" />
			</output>
		</layer>
		<layer id="310" name="mobilenet_1.00_224_1/conv_dw_8_relu_1/Relu6/fq_output_0/input_high" type="Convert" version="opset1">
			<data destination_type="f32" />
			<rt_info>
				<attribute name="decompression" version="0" />
			</rt_info>
			<input>
				<port id="0" precision="FP16" />
			</input>
			<output>
				<port id="1" precision="FP32" />
			</output>
		</layer>
		<layer id="311" name="mobilenet_1.00_224_1/conv_dw_8_relu_1/Relu6/fq_output_0/output_low_compressed" type="Const" version="opset1">
			<data element_type="f16" shape="" offset="1572" size="2" />
			<output>
				<port id="0" precision="FP16" />
			</output>
		</layer>
		<layer id="312" name="mobilenet_1.00_224_1/conv_dw_8_relu_1/Relu6/fq_output_0/output_low" type="Convert" version="opset1">
			<data destination_type="f32" />
			<rt_info>
				<attribute name="decompression" version="0" />
			</rt_info>
			<input>
				<port id="0" precision="FP16" />
			</input>
			<output>
				<port id="1" precision="FP32" />
			</output>
		</layer>
		<layer id="313" name="mobilenet_1.00_224_1/conv_dw_8_relu_1/Relu6/fq_output_0/output_high_compressed" type="Const" version="opset1">
			<data element_type="f16" shape="" offset="1574" size="2" />
			<output>
				<port id="0" precision="FP16" />
			</output>
		</layer>
		<layer id="314" name="mobilenet_1.00_224_1/conv_dw_8_relu_1/Relu6/fq_output_0/output_high" type="Convert" version="opset1">
			<data destination_type="f32" />
			<rt_info>
				<attribute name="decompression" version="0" />
			</rt_info>
			<input>
				<port id="0" precision="FP16" />
			</input>
			<output>
				<port id="1" precision="FP32" />
			</output>
		</layer>
		<layer id="315" name="mobilenet_1.00_224_1/conv_dw_8_relu_1/Relu6/fq_output_0" type="FakeQuantize" version="opset1">
			<data levels="256" auto_broadcast="numpy" />
			<input>
				<port id="0" precision="FP32">
					<dim>1</dim>
					<dim>512</dim>
					<dim>14</dim>
					<dim>14</dim>
				</port>
				<port id="1" precision="FP32" />
				<port id="2" precision="FP32" />
				<port id="3" precision="FP32" />
				<port id="4" precision="FP32" />
			</input>
			<output>
				<port id="5" precision="FP32">
					<dim>1</dim>
					<dim>512</dim>
					<dim>14</dim>
					<dim>14</dim>
				</port>
			</output>
		</layer>
		<layer id="316" name="Constant_67960" type="Const" version="opset1">
			<data element_type="i8" shape="512, 512, 1, 1" offset="556904" size="262144" />
			<output>
				<port id="0" precision="I8">
					<dim>512</dim>
					<dim>512</dim>
					<dim>1</dim>
					<dim>1</dim>
				</port>
			</output>
		</layer>
		<layer id="317" name="Convert_67961" type="Convert" version="opset1">
			<data destination_type="f32" />
			<input>
				<port id="0" precision="I8">
					<dim>512</dim>
					<dim>512</dim>
					<dim>1</dim>
					<dim>1</dim>
				</port>
			</input>
			<output>
				<port id="1" precision="FP32">
					<dim>512</dim>
					<dim>512</dim>
					<dim>1</dim>
					<dim>1</dim>
				</port>
			</output>
		</layer>
		<layer id="318" name="Constant_67962_compressed" type="Const" version="opset1">
			<data element_type="f16" shape="512, 1, 1, 1" offset="819048" size="1024" />
			<output>
				<port id="0" precision="FP16">
					<dim>512</dim>
					<dim>1</dim>
					<dim>1</dim>
					<dim>1</dim>
				</port>
			</output>
		</layer>
		<layer id="319" name="Constant_67962" type="Convert" version="opset1">
			<data destination_type="f32" />
			<rt_info>
				<attribute name="decompression" version="0" />
			</rt_info>
			<input>
				<port id="0" precision="FP16">
					<dim>512</dim>
					<dim>1</dim>
					<dim>1</dim>
					<dim>1</dim>
				</port>
			</input>
			<output>
				<port id="1" precision="FP32">
					<dim>512</dim>
					<dim>1</dim>
					<dim>1</dim>
					<dim>1</dim>
				</port>
			</output>
		</layer>
		<layer id="320" name="Conv__307/WithoutBiases/fq_weights_1" type="Multiply" version="opset1">
			<data auto_broadcast="numpy" />
			<input>
				<port id="0" precision="FP32">
					<dim>512</dim>
					<dim>512</dim>
					<dim>1</dim>
					<dim>1</dim>
				</port>
				<port id="1" precision="FP32">
					<dim>512</dim>
					<dim>1</dim>
					<dim>1</dim>
					<dim>1</dim>
				</port>
			</input>
			<output>
				<port id="2" precision="FP32">
					<dim>512</dim>
					<dim>512</dim>
					<dim>1</dim>
					<dim>1</dim>
				</port>
			</output>
		</layer>
		<layer id="321" name="Conv__307/WithoutBiases" type="Convolution" version="opset1">
			<data strides="1, 1" dilations="1, 1" pads_begin="0, 0" pads_end="0, 0" auto_pad="explicit" />
			<input>
				<port id="0" precision="FP32">
					<dim>1</dim>
					<dim>512</dim>
					<dim>14</dim>
					<dim>14</dim>
				</port>
				<port id="1" precision="FP32">
					<dim>512</dim>
					<dim>512</dim>
					<dim>1</dim>
					<dim>1</dim>
				</port>
			</input>
			<output>
				<port id="2" precision="FP32">
					<dim>1</dim>
					<dim>512</dim>
					<dim>14</dim>
					<dim>14</dim>
				</port>
			</output>
		</layer>
		<layer id="322" name="Reshape_670_compressed" type="Const" version="opset1">
			<data element_type="f16" shape="1, 512, 1, 1" offset="820072" size="1024" />
			<output>
				<port id="0" precision="FP16">
					<dim>1</dim>
					<dim>512</dim>
					<dim>1</dim>
					<dim>1</dim>
				</port>
			</output>
		</layer>
		<layer id="323" name="Reshape_670" type="Convert" version="opset1">
			<data destination_type="f32" />
			<rt_info>
				<attribute name="decompression" version="0" />
			</rt_info>
			<input>
				<port id="0" precision="FP16">
					<dim>1</dim>
					<dim>512</dim>
					<dim>1</dim>
					<dim>1</dim>
				</port>
			</input>
			<output>
				<port id="1" precision="FP32">
					<dim>1</dim>
					<dim>512</dim>
					<dim>1</dim>
					<dim>1</dim>
				</port>
			</output>
		</layer>
		<layer id="324" name="Conv__307" type="Add" version="opset1">
			<data auto_broadcast="numpy" />
			<input>
				<port id="0" precision="FP32">
					<dim>1</dim>
					<dim>512</dim>
					<dim>14</dim>
					<dim>14</dim>
				</port>
				<port id="1" precision="FP32">
					<dim>1</dim>
					<dim>512</dim>
					<dim>1</dim>
					<dim>1</dim>
				</port>
			</input>
			<output>
				<port id="2" precision="FP32" names="Conv__307:0">
					<dim>1</dim>
					<dim>512</dim>
					<dim>14</dim>
					<dim>14</dim>
				</port>
			</output>
		</layer>
		<layer id="325" name="mobilenet_1.00_224_1/conv_pw_8_relu_1/Relu6" type="Clamp" version="opset1">
			<data min="0" max="6" />
			<input>
				<port id="0" precision="FP32">
					<dim>1</dim>
					<dim>512</dim>
					<dim>14</dim>
					<dim>14</dim>
				</port>
			</input>
			<output>
				<port id="1" precision="FP32" names="mobilenet_1.00_224_1/conv_pw_8_relu_1/Relu6:0">
					<dim>1</dim>
					<dim>512</dim>
					<dim>14</dim>
					<dim>14</dim>
				</port>
			</output>
		</layer>
		<layer id="326" name="mobilenet_1.00_224_1/conv_pw_8_relu_1/Relu6/fq_output_0/input_low_compressed" type="Const" version="opset1">
			<data element_type="f16" shape="1, 512, 1, 1" offset="276328" size="1024" />
			<output>
				<port id="0" precision="FP16">
					<dim>1</dim>
					<dim>512</dim>
					<dim>1</dim>
					<dim>1</dim>
				</port>
			</output>
		</layer>
		<layer id="327" name="mobilenet_1.00_224_1/conv_pw_8_relu_1/Relu6/fq_output_0/input_low" type="Convert" version="opset1">
			<data destination_type="f32" />
			<rt_info>
				<attribute name="decompression" version="0" />
			</rt_info>
			<input>
				<port id="0" precision="FP16">
					<dim>1</dim>
					<dim>512</dim>
					<dim>1</dim>
					<dim>1</dim>
				</port>
			</input>
			<output>
				<port id="1" precision="FP32">
					<dim>1</dim>
					<dim>512</dim>
					<dim>1</dim>
					<dim>1</dim>
				</port>
			</output>
		</layer>
		<layer id="328" name="mobilenet_1.00_224_1/conv_pw_8_relu_1/Relu6/fq_output_0/input_high_compressed" type="Const" version="opset1">
			<data element_type="f16" shape="1, 512, 1, 1" offset="821096" size="1024" />
			<output>
				<port id="0" precision="FP16">
					<dim>1</dim>
					<dim>512</dim>
					<dim>1</dim>
					<dim>1</dim>
				</port>
			</output>
		</layer>
		<layer id="329" name="mobilenet_1.00_224_1/conv_pw_8_relu_1/Relu6/fq_output_0/input_high" type="Convert" version="opset1">
			<data destination_type="f32" />
			<rt_info>
				<attribute name="decompression" version="0" />
			</rt_info>
			<input>
				<port id="0" precision="FP16">
					<dim>1</dim>
					<dim>512</dim>
					<dim>1</dim>
					<dim>1</dim>
				</port>
			</input>
			<output>
				<port id="1" precision="FP32">
					<dim>1</dim>
					<dim>512</dim>
					<dim>1</dim>
					<dim>1</dim>
				</port>
			</output>
		</layer>
		<layer id="330" name="mobilenet_1.00_224_1/conv_pw_8_relu_1/Relu6/fq_output_0/output_low_compressed" type="Const" version="opset1">
			<data element_type="f16" shape="1, 512, 1, 1" offset="276328" size="1024" />
			<output>
				<port id="0" precision="FP16">
					<dim>1</dim>
					<dim>512</dim>
					<dim>1</dim>
					<dim>1</dim>
				</port>
			</output>
		</layer>
		<layer id="331" name="mobilenet_1.00_224_1/conv_pw_8_relu_1/Relu6/fq_output_0/output_low" type="Convert" version="opset1">
			<data destination_type="f32" />
			<rt_info>
				<attribute name="decompression" version="0" />
			</rt_info>
			<input>
				<port id="0" precision="FP16">
					<dim>1</dim>
					<dim>512</dim>
					<dim>1</dim>
					<dim>1</dim>
				</port>
			</input>
			<output>
				<port id="1" precision="FP32">
					<dim>1</dim>
					<dim>512</dim>
					<dim>1</dim>
					<dim>1</dim>
				</port>
			</output>
		</layer>
		<layer id="332" name="mobilenet_1.00_224_1/conv_pw_8_relu_1/Relu6/fq_output_0/output_high_compressed" type="Const" version="opset1">
			<data element_type="f16" shape="1, 512, 1, 1" offset="821096" size="1024" />
			<output>
				<port id="0" precision="FP16">
					<dim>1</dim>
					<dim>512</dim>
					<dim>1</dim>
					<dim>1</dim>
				</port>
			</output>
		</layer>
		<layer id="333" name="mobilenet_1.00_224_1/conv_pw_8_relu_1/Relu6/fq_output_0/output_high" type="Convert" version="opset1">
			<data destination_type="f32" />
			<rt_info>
				<attribute name="decompression" version="0" />
			</rt_info>
…
		<layer id="522" name="mobilenet_1.00_224_1/conv_pw_13_relu_1/Relu6/fq_output_0/output_high_compressed" type="Const" version="opset1">
			<data element_type="f16" shape="" offset="1574" size="2" />
			<output>
				<port id="0" precision="FP16" />
			</output>
		</layer>
		<layer id="523" name="mobilenet_1.00_224_1/conv_pw_13_relu_1/Relu6/fq_output_0/output_high" type="Convert" version="opset1">
			<data destination_type="f32" />
			<rt_info>
				<attribute name="decompression" version="0" />
			</rt_info>
			<input>
				<port id="0" precision="FP16" />
			</input>
			<output>
				<port id="1" precision="FP32" />
			</output>
		</layer>
		<layer id="524" name="mobilenet_1.00_224_1/conv_pw_13_relu_1/Relu6/fq_output_0" type="FakeQuantize" version="opset1">
			<data levels="256" auto_broadcast="numpy" />
			<input>
				<port id="0" precision="FP32">
					<dim>1</dim>
					<dim>1024</dim>
					<dim>7</dim>
					<dim>7</dim>
				</port>
				<port id="1" precision="FP32" />
				<port id="2" precision="FP32" />
				<port id="3" precision="FP32" />
				<port id="4" precision="FP32" />
			</input>
			<output>
				<port id="5" precision="FP32">
					<dim>1</dim>
					<dim>1024</dim>
					<dim>7</dim>
					<dim>7</dim>
				</port>
			</output>
		</layer>
		<layer id="525" name="Range_1041" type="Const" version="opset1">
			<data element_type="i64" shape="2" offset="3242862" size="16" />
			<output>
				<port id="0" precision="I64">
					<dim>2</dim>
				</port>
			</output>
		</layer>
		<layer id="526" name="mobilenet_1.00_224_1/global_average_pooling2d_1/Mean" type="ReduceMean" version="opset1">
			<data keep_dims="true" />
			<input>
				<port id="0" precision="FP32">
					<dim>1</dim>
					<dim>1024</dim>
					<dim>7</dim>
					<dim>7</dim>
				</port>
				<port id="1" precision="I64">
					<dim>2</dim>
				</port>
			</input>
			<output>
				<port id="2" precision="FP32" names="mobilenet_1.00_224_1/global_average_pooling2d_1/Mean:0">
					<dim>1</dim>
					<dim>1024</dim>
					<dim>1</dim>
					<dim>1</dim>
				</port>
			</output>
		</layer>
		<layer id="527" name="mobilenet_1.00_224_1/global_average_pooling2d_1/Mean/fq_output_0/input_low_compressed" type="Const" version="opset1">
			<data element_type="f16" shape="" offset="1572" size="2" />
			<output>
				<port id="0" precision="FP16" />
			</output>
		</layer>
		<layer id="528" name="mobilenet_1.00_224_1/global_average_pooling2d_1/Mean/fq_output_0/input_low" type="Convert" version="opset1">
			<data destination_type="f32" />
			<rt_info>
				<attribute name="decompression" version="0" />
			</rt_info>
			<input>
				<port id="0" precision="FP16" />
			</input>
			<output>
				<port id="1" precision="FP32" />
			</output>
		</layer>
		<layer id="529" name="mobilenet_1.00_224_1/global_average_pooling2d_1/Mean/fq_output_0/input_high_compressed" type="Const" version="opset1">
			<data element_type="f16" shape="" offset="3242878" size="2" />
			<output>
				<port id="0" precision="FP16" />
			</output>
		</layer>
		<layer id="530" name="mobilenet_1.00_224_1/global_average_pooling2d_1/Mean/fq_output_0/input_high" type="Convert" version="opset1">
			<data destination_type="f32" />
			<rt_info>
				<attribute name="decompression" version="0" />
			</rt_info>
			<input>
				<port id="0" precision="FP16" />
			</input>
			<output>
				<port id="1" precision="FP32" />
			</output>
		</layer>
		<layer id="531" name="mobilenet_1.00_224_1/global_average_pooling2d_1/Mean/fq_output_0/output_low_compressed" type="Const" version="opset1">
			<data element_type="f16" shape="" offset="1572" size="2" />
			<output>
				<port id="0" precision="FP16" />
			</output>
		</layer>
		<layer id="532" name="mobilenet_1.00_224_1/global_average_pooling2d_1/Mean/fq_output_0/output_low" type="Convert" version="opset1">
			<data destination_type="f32" />
			<rt_info>
				<attribute name="decompression" version="0" />
			</rt_info>
			<input>
				<port id="0" precision="FP16" />
			</input>
			<output>
				<port id="1" precision="FP32" />
			</output>
		</layer>
		<layer id="533" name="mobilenet_1.00_224_1/global_average_pooling2d_1/Mean/fq_output_0/output_high_compressed" type="Const" version="opset1">
			<data element_type="f16" shape="" offset="3242878" size="2" />
			<output>
				<port id="0" precision="FP16" />
			</output>
		</layer>
		<layer id="534" name="mobilenet_1.00_224_1/global_average_pooling2d_1/Mean/fq_output_0/output_high" type="Convert" version="opset1">
			<data destination_type="f32" />
			<rt_info>
				<attribute name="decompression" version="0" />
			</rt_info>
			<input>
				<port id="0" precision="FP16" />
			</input>
			<output>
				<port id="1" precision="FP32" />
			</output>
		</layer>
		<layer id="535" name="mobilenet_1.00_224_1/global_average_pooling2d_1/Mean/fq_output_0" type="FakeQuantize" version="opset1">
			<data levels="256" auto_broadcast="numpy" />
			<input>
				<port id="0" precision="FP32">
					<dim>1</dim>
					<dim>1024</dim>
					<dim>1</dim>
					<dim>1</dim>
				</port>
				<port id="1" precision="FP32" />
				<port id="2" precision="FP32" />
				<port id="3" precision="FP32" />
				<port id="4" precision="FP32" />
			</input>
			<output>
				<port id="5" precision="FP32">
					<dim>1</dim>
					<dim>1024</dim>
					<dim>1</dim>
					<dim>1</dim>
				</port>
			</output>
		</layer>
		<layer id="536" name="new_shape__373" type="Const" version="opset1">
			<data element_type="i64" shape="4" offset="3242880" size="32" />
			<rt_info>
				<attribute name="precise" version="0" />
			</rt_info>
			<output>
				<port id="0" precision="I64" names="new_shape__373">
					<dim>4</dim>
				</port>
			</output>
		</layer>
		<layer id="537" name="mobilenet_1.00_224_1/conv_preds_1/convolution__211" type="Reshape" version="opset1">
			<data special_zero="true" />
			<input>
				<port id="0" precision="FP32">
					<dim>1</dim>
					<dim>1024</dim>
					<dim>1</dim>
					<dim>1</dim>
				</port>
				<port id="1" precision="I64">
					<dim>4</dim>
				</port>
			</input>
			<output>
				<port id="2" precision="FP32" names="mobilenet_1.00_224_1/conv_preds_1/convolution__211:0">
					<dim>1</dim>
					<dim>1024</dim>
					<dim>1</dim>
					<dim>1</dim>
				</port>
			</output>
		</layer>
		<layer id="538" name="Constant_68004" type="Const" version="opset1">
			<data element_type="i8" shape="1000, 1024, 1, 1" offset="3242912" size="1024000" />
			<output>
				<port id="0" precision="I8">
					<dim>1000</dim>
					<dim>1024</dim>
					<dim>1</dim>
					<dim>1</dim>
				</port>
			</output>
		</layer>
		<layer id="539" name="Convert_68005" type="Convert" version="opset1">
			<data destination_type="f32" />
			<input>
				<port id="0" precision="I8">
					<dim>1000</dim>
					<dim>1024</dim>
					<dim>1</dim>
					<dim>1</dim>
				</port>
			</input>
			<output>
				<port id="1" precision="FP32">
					<dim>1000</dim>
					<dim>1024</dim>
					<dim>1</dim>
					<dim>1</dim>
				</port>
			</output>
		</layer>
		<layer id="540" name="Constant_68006_compressed" type="Const" version="opset1">
			<data element_type="f16" shape="1000, 1, 1, 1" offset="4266912" size="2000" />
			<output>
				<port id="0" precision="FP16">
					<dim>1000</dim>
					<dim>1</dim>
					<dim>1</dim>
					<dim>1</dim>
				</port>
			</output>
		</layer>
		<layer id="541" name="Constant_68006" type="Convert" version="opset1">
			<data destination_type="f32" />
			<rt_info>
				<attribute name="decompression" version="0" />
			</rt_info>
			<input>
				<port id="0" precision="FP16">
					<dim>1000</dim>
					<dim>1</dim>
					<dim>1</dim>
					<dim>1</dim>
				</port>
			</input>
			<output>
				<port id="1" precision="FP32">
					<dim>1000</dim>
					<dim>1</dim>
					<dim>1</dim>
					<dim>1</dim>
				</port>
			</output>
		</layer>
		<layer id="542" name="Conv__359/WithoutBiases/fq_weights_1" type="Multiply" version="opset1">
			<data auto_broadcast="numpy" />
			<input>
				<port id="0" precision="FP32">
					<dim>1000</dim>
					<dim>1024</dim>
					<dim>1</dim>
					<dim>1</dim>
				</port>
				<port id="1" precision="FP32">
					<dim>1000</dim>
					<dim>1</dim>
					<dim>1</dim>
					<dim>1</dim>
				</port>
			</input>
			<output>
				<port id="2" precision="FP32">
					<dim>1000</dim>
					<dim>1024</dim>
					<dim>1</dim>
					<dim>1</dim>
				</port>
			</output>
		</layer>
		<layer id="543" name="Conv__359/WithoutBiases" type="Convolution" version="opset1">
			<data strides="1, 1" dilations="1, 1" pads_begin="0, 0" pads_end="0, 0" auto_pad="explicit" />
			<input>
				<port id="0" precision="FP32">
					<dim>1</dim>
					<dim>1024</dim>
					<dim>1</dim>
					<dim>1</dim>
				</port>
				<port id="1" precision="FP32">
					<dim>1000</dim>
					<dim>1024</dim>
					<dim>1</dim>
					<dim>1</dim>
				</port>
			</input>
			<output>
				<port id="2" precision="FP32">
					<dim>1</dim>
					<dim>1000</dim>
					<dim>1</dim>
					<dim>1</dim>
				</port>
			</output>
		</layer>
		<layer id="544" name="Reshape_1060_compressed" type="Const" version="opset1">
			<data element_type="f16" shape="1, 1000, 1, 1" offset="4268912" size="2000" />
			<output>
				<port id="0" precision="FP16">
					<dim>1</dim>
					<dim>1000</dim>
					<dim>1</dim>
					<dim>1</dim>
				</port>
			</output>
		</layer>
		<layer id="545" name="Reshape_1060" type="Convert" version="opset1">
			<data destination_type="f32" />
			<rt_info>
				<attribute name="decompression" version="0" />
			</rt_info>
			<input>
				<port id="0" precision="FP16">
					<dim>1</dim>
					<dim>1000</dim>
					<dim>1</dim>
					<dim>1</dim>
				</port>
			</input>
			<output>
				<port id="1" precision="FP32">
					<dim>1</dim>
					<dim>1000</dim>
					<dim>1</dim>
					<dim>1</dim>
				</port>
			</output>
		</layer>
		<layer id="546" name="Conv__359" type="Add" version="opset1">
			<data auto_broadcast="numpy" />
			<input>
				<port id="0" precision="FP32">
					<dim>1</dim>
					<dim>1000</dim>
					<dim>1</dim>
					<dim>1</dim>
				</port>
				<port id="1" precision="FP32">
					<dim>1</dim>
					<dim>1000</dim>
					<dim>1</dim>
					<dim>1</dim>
				</port>
			</input>
			<output>
				<port id="2" precision="FP32" names="Conv__359:0">
					<dim>1</dim>
					<dim>1000</dim>
					<dim>1</dim>
					<dim>1</dim>
				</port>
			</output>
		</layer>
		<layer id="547" name="mobilenet_1.00_224_1/reshape_2_1/Reshape_shape__425" type="Const" version="opset1">
			<data element_type="i64" shape="2" offset="4270912" size="16" />
			<rt_info>
				<attribute name="precise" version="0" />
			</rt_info>
			<output>
				<port id="0" precision="I64" names="mobilenet_1.00_224_1/reshape_2_1/Reshape_shape__425">
					<dim>2</dim>
				</port>
			</output>
		</layer>
		<layer id="548" name="mobilenet_1.00_224_1/reshape_2_1/Reshape" type="Reshape" version="opset1">
			<data special_zero="true" />
			<input>
				<port id="0" precision="FP32">
					<dim>1</dim>
					<dim>1000</dim>
					<dim>1</dim>
					<dim>1</dim>
				</port>
				<port id="1" precision="I64">
					<dim>2</dim>
				</port>
			</input>
			<output>
				<port id="2" precision="FP32" names="mobilenet_1.00_224_1/reshape_2_1/Reshape:0">
					<dim>1</dim>
					<dim>1000</dim>
				</port>
			</output>
		</layer>
		<layer id="549" name="predictions" type="SoftMax" version="opset8">
			<data axis="-1" />
			<input>
				<port id="0" precision="FP32">
					<dim>1</dim>
					<dim>1000</dim>
				</port>
			</input>
			<output>
				<port id="1" precision="FP32" names="predictions">
					<dim>1</dim>
					<dim>1000</dim>
				</port>
			</output>
		</layer>
		<layer id="550" name="predictions/sink_port_0" type="Result" version="opset1">
			<input>
				<port id="0" precision="FP32">
					<dim>1</dim>
					<dim>1000</dim>
				</port>
			</input>
		</layer>
	</layers>
	<edges>
		<edge from-layer="0" from-port="0" to-layer="9" to-port="0" />
		<edge from-layer="1" from-port="0" to-layer="2" to-port="0" />
		<edge from-layer="2" from-port="1" to-layer="9" to-port="1" />
		<edge from-layer="3" from-port="0" to-layer="4" to-port="0" />
		<edge from-layer="4" from-port="1" to-layer="9" to-port="2" />
		<edge from-layer="5" from-port="0" to-layer="6" to-port="0" />
		<edge from-layer="6" from-port="1" to-layer="9" to-port="3" />
		<edge from-layer="7" from-port="0" to-layer="8" to-port="0" />
		<edge from-layer="8" from-port="1" to-layer="9" to-port="4" />
		<edge from-layer="9" from-port="5" to-layer="11" to-port="0" />
		<edge from-layer="10" from-port="0" to-layer="11" to-port="1" />
		<edge from-layer="11" from-port="2" to-layer="17" to-port="0" />
		<edge from-layer="12" from-port="0" to-layer="13" to-port="0" />
		<edge from-layer="13" from-port="1" to-layer="16" to-port="0" />
		<edge from-layer="14" from-port="0" to-layer="15" to-port="0" />
		<edge from-layer="15" from-port="1" to-layer="16" to-port="1" />
		<edge from-layer="16" from-port="2" to-layer="17" to-port="1" />
		<edge from-layer="17" from-port="2" to-layer="20" to-port="0" />
		<edge from-layer="18" from-port="0" to-layer="19" to-port="0" />
		<edge from-layer="19" from-port="1" to-layer="20" to-port="1" />
		<edge from-layer="20" from-port="2" to-layer="21" to-port="0" />
		<edge from-layer="21" from-port="1" to-layer="30" to-port="0" />
		<edge from-layer="22" from-port="0" to-layer="23" to-port="0" />
		<edge from-layer="23" from-port="1" to-layer="30" to-port="1" />
		<edge from-layer="24" from-port="0" to-layer="25" to-port="0" />
		<edge from-layer="25" from-port="1" to-layer="30" to-port="2" />
		<edge from-layer="26" from-port="0" to-layer="27" to-port="0" />
		<edge from-layer="27" from-port="1" to-layer="30" to-port="3" />
		<edge from-layer="28" from-port="0" to-layer="29" to-port="0" />
		<edge from-layer="29" from-port="1" to-layer="30" to-port="4" />
		<edge from-layer="30" from-port="5" to-layer="36" to-port="0" />
		<edge from-layer="31" from-port="0" to-layer="32" to-port="0" />
		<edge from-layer="32" from-port="1" to-layer="35" to-port="0" />
		<edge from-layer="33" from-port="0" to-layer="34" to-port="0" />
		<edge from-layer="34" from-port="1" to-layer="35" to-port="1" />
		<edge from-layer="35" from-port="2" to-layer="36" to-port="1" />
		<edge from-layer="36" from-port="2" to-layer="39" to-port="0" />
		<edge from-layer="37" from-port="0" to-layer="38" to-port="0" />
		<edge from-layer="38" from-port="1" to-layer="39" to-port="1" />
		<edge from-layer="39" from-port="2" to-layer="40" to-port="0" />
		<edge from-layer="40" from-port="1" to-layer="49" to-port="0" />
		<edge from-layer="41" from-port="0" to-layer="42" to-port="0" />
		<edge from-layer="42" from-port="1" to-layer="49" to-port="1" />
		<edge from-layer="43" from-port="0" to-layer="44" to-port="0" />
		<edge from-layer="44" from-port="1" to-layer="49" to-port="2" />
		<edge from-layer="45" from-port="0" to-layer="46" to-port="0" />
		<edge from-layer="46" from-port="1" to-layer="49" to-port="3" />
		<edge from-layer="47" from-port="0" to-layer="48" to-port="0" />
		<edge from-layer="48" from-port="1" to-layer="49" to-port="4" />
		<edge from-layer="49" from-port="5" to-layer="55" to-port="0" />
		<edge from-layer="50" from-port="0" to-layer="51" to-port="0" />
		<edge from-layer="51" from-port="1" to-layer="54" to-port="0" />
		<edge from-layer="52" from-port="0" to-layer="53" to-port="0" />
		<edge from-layer="53" from-port="1" to-layer="54" to-port="1" />
		<edge from-layer="54" from-port="2" to-layer="55" to-port="1" />
		<edge from-layer="55" from-port="2" to-layer="58" to-port="0" />
		<edge from-layer="56" from-port="0" to-layer="57" to-port="0" />
		<edge from-layer="57" from-port="1" to-layer="58" to-port="1" />
		<edge from-layer="58" from-port="2" to-layer="59" to-port="0" />
		<edge from-layer="59" from-port="1" to-layer="68" to-port="0" />
		<edge from-layer="60" from-port="0" to-layer="61" to-port="0" />
		<edge from-layer="61" from-port="1" to-layer="68" to-port="1" />
		<edge from-layer="62" from-port="0" to-layer="63" to-port="0" />
		<edge from-layer="63" from-port="1" to-layer="68" to-port="2" />
		<edge from-layer="64" from-port="0" to-layer="65" to-port="0" />
		<edge from-layer="65" from-port="1" to-layer="68" to-port="3" />
		<edge from-layer="66" from-port="0" to-layer="67" to-port="0" />
		<edge from-layer="67" from-port="1" to-layer="68" to-port="4" />
		<edge from-layer="68" from-port="5" to-layer="74" to-port="0" />
		<edge from-layer="69" from-port="0" to-layer="70" to-port="0" />
		<edge from-layer="70" from-port="1" to-layer="73" to-port="0" />
		<edge from-layer="71" from-port="0" to-layer="72" to-port="0" />
		<edge from-layer="72" from-port="1" to-layer="73" to-port="1" />
		<edge from-layer="73" from-port="2" to-layer="74" to-port="1" />
		<edge from-layer="74" from-port="2" to-layer="77" to-port="0" />
		<edge from-layer="75" from-port="0" to-layer="76" to-port="0" />
		<edge from-layer="76" from-port="1" to-layer="77" to-port="1" />
		<edge from-layer="77" from-port="2" to-layer="78" to-port="0" />
		<edge from-layer="78" from-port="1" to-layer="87" to-port="0" />
		<edge from-layer="79" from-port="0" to-layer="80" to-port="0" />
		<edge from-layer="80" from-port="1" to-layer="87" to-port="1" />
		<edge from-layer="81" from-port="0" to-layer="82" to-port="0" />
		<edge from-layer="82" from-port="1" to-layer="87" to-port="2" />
		<edge from-layer="83" from-port="0" to-layer="84" to-port="0" />
		<edge from-layer="84" from-port="1" to-layer="87" to-port="3" />
		<edge from-layer="85" from-port="0" to-layer="86" to-port="0" />
		<edge from-layer="86" from-port="1" to-layer="87" to-port="4" />
		<edge from-layer="87" from-port="5" to-layer="93" to-port="0" />
		<edge from-layer="88" from-port="0" to-layer="89" to-port="0" />
		<edge from-layer="89" from-port="1" to-layer="92" to-port="0" />
		<edge from-layer="90" from-port="0" to-layer="91" to-port="0" />
		<edge from-layer="91" from-port="1" to-layer="92" to-port="1" />
		<edge from-layer="92" from-port="2" to-layer="93" to-port="1" />
		<edge from-layer="93" from-port="2" to-layer="96" to-port="0" />
		<edge from-layer="94" from-port="0" to-layer="95" to-port="0" />
		<edge from-layer="95" from-port="1" to-layer="96" to-port="1" />
		<edge from-layer="96" from-port="2" to-layer="97" to-port="0" />
		<edge from-layer="97" from-port="1" to-layer="106" to-port="0" />
		<edge from-layer="98" from-port="0" to-layer="99" to-port="0" />
		<edge from-layer="99" from-port="1" to-layer="106" to-port="1" />
		<edge from-layer="100" from-port="0" to-layer="101" to-port="0" />
		<edge from-layer="101" from-port="1" to-layer="106" to-port="2" />
		<edge from-layer="102" from-port="0" to-layer="103" to-port="0" />
		<edge from-layer="103" from-port="1" to-layer="106" to-port="3" />
		<edge from-layer="104" from-port="0" to-layer="105" to-port="0" />
		<edge from-layer="105" from-port="1" to-layer="106" to-port="4" />
		<edge from-layer="106" from-port="5" to-layer="112" to-port="0" />
		<edge from-layer="107" from-port="0" to-layer="108" to-port="0" />
		<edge from-layer="108" from-port="1" to-layer="111" to-port="0" />
		<edge from-layer="109" from-port="0" to-layer="110" to-port="0" />
		<edge from-layer="110" from-port="1" to-layer="111" to-port="1" />
		<edge from-layer="111" from-port="2" to-layer="112" to-port="1" />
		<edge from-layer="112" from-port="2" to-layer="115" to-port="0" />
		<edge from-layer="113" from-port="0" to-layer="114" to-port="0" />
		<edge from-layer="114" from-port="1" to-layer="115" to-port="1" />
		<edge from-layer="115" from-port="2" to-layer="116" to-port="0" />
		<edge from-layer="116" from-port="1" to-layer="125" to-port="0" />
		<edge from-layer="117" from-port="0" to-layer="118" to-port="0" />
		<edge from-layer="118" from-port="1" to-layer="125" to-port="1" />
		<edge from-layer="119" from-port="0" to-layer="120" to-port="0" />
		<edge from-layer="120" from-port="1" to-layer="125" to-port="2" />
		<edge from-layer="121" from-port="0" to-layer="122" to-port="0" />
		<edge from-layer="122" from-port="1" to-layer="125" to-port="3" />
		<edge from-layer="123" from-port="0" to-layer="124" to-port="0" />
		<edge from-layer="124" from-port="1" to-layer="125" to-port="4" />
		<edge from-layer="125" from-port="5" to-layer="131" to-port="0" />
		<edge from-layer="126" from-port="0" to-layer="127" to-port="0" />
		<edge from-layer="127" from-port="1" to-layer="130" to-port="0" />
		<edge from-layer="128" from-port="0" to-layer="129" to-port="0" />
		<edge from-layer="129" from-port="1" to-layer="130" to-port="1" />
		<edge from-layer="130" from-port="2" to-layer="131" to-port="1" />
		<edge from-layer="131" from-port="2" to-layer="134" to-port="0" />
		<edge from-layer="132" from-port="0" to-layer="133" to-port="0" />
		<edge from-layer="133" from-port="1" to-layer="134" to-port="1" />
		<edge from-layer="134" from-port="2" to-layer="135" to-port="0" />
		<edge from-layer="135" from-port="1" to-layer="144" to-port="0" />
		<edge from-layer="136" from-port="0" to-layer="137" to-port="0" />
		<edge from-layer="137" from-port="1" to-layer="144" to-port="1" />
		<edge from-layer="138" from-port="0" to-layer="139" to-port="0" />
		<edge from-layer="139" from-port="1" to-layer="144" to-port="2" />
		<edge from-layer="140" from-port="0" to-layer="141" to-port="0" />
		<edge from-layer="141" from-port="1" to-layer="144" to-port="3" />
		<edge from-layer="142" from-port="0" to-layer="143" to-port="0" />
		<edge from-layer="143" from-port="1" to-layer="144" to-port="4" />
		<edge from-layer="144" from-port="5" to-layer="150" to-port="0" />
		<edge from-layer="145" from-port="0" to-layer="146" to-port="0" />
		<edge from-layer="146" from-port="1" to-layer="149" to-port="0" />
		<edge from-layer="147" from-port="0" to-layer="148" to-port="0" />
		<edge from-layer="148" from-port="1" to-layer="149" to-port="1" />
		<edge from-layer="149" from-port="2" to-layer="150" to-port="1" />
		<edge from-layer="150" from-port="2" to-layer="153" to-port="0" />
		<edge from-layer="151" from-port="0" to-layer="152" to-port="0" />
		<edge from-layer="152" from-port="1" to-layer="153" to-port="1" />
		<edge from-layer="153" from-port="2" to-layer="154" to-port="0" />
		<edge from-layer="154" from-port="1" to-layer="163" to-port="0" />
		<edge from-layer="155" from-port="0" to-layer="156" to-port="0" />
		<edge from-layer="156" from-port="1" to-layer="163" to-port="1" />
		<edge from-layer="157" from-port="0" to-layer="158" to-port="0" />
		<edge from-layer="158" from-port="1" to-layer="163" to-port="2" />
		<edge from-layer="159" from-port="0" to-layer="160" to-port="0" />
		<edge from-layer="160" from-port="1" to-layer="163" to-port="3" />
		<edge from-layer="161" from-port="0" to-layer="162" to-port="0" />
		<edge from-layer="162" from-port="1" to-layer="163" to-port="4" />
		<edge from-layer="163" from-port="5" to-layer="169" to-port="0" />
		<edge from-layer="164" from-port="0" to-layer="165" to-port="0" />
		<edge from-layer="165" from-port="1" to-layer="168" to-port="0" />
		<edge from-layer="166" from-port="0" to-layer="167" to-port="0" />
		<edge from-layer="167" from-port="1" to-layer="168" to-port="1" />
		<edge from-layer="168" from-port="2" to-layer="169" to-port="1" />
		<edge from-layer="169" from-port="2" to-layer="172" to-port="0" />
		<edge from-layer="170" from-port="0" to-layer="171" to-port="0" />
		<edge from-layer="171" from-port="1" to-layer="172" to-port="1" />
		<edge from-layer="172" from-port="2" to-layer="173" to-port="0" />
		<edge from-layer="173" from-port="1" to-layer="182" to-port="0" />
		<edge from-layer="174" from-port="0" to-layer="175" to-port="0" />
		<edge from-layer="175" from-port="1" to-layer="182" to-port="1" />
		<edge from-layer="176" from-port="0" to-layer="177" to-port="0" />
		<edge from-layer="177" from-port="1" to-layer="182" to-port="2" />
		<edge from-layer="178" from-port="0" to-layer="179" to-port="0" />
		<edge from-layer="179" from-port="1" to-layer="182" to-port="3" />
		<edge from-layer="180" from-port="0" to-layer="181" to-port="0" />
		<edge from-layer="181" from-port="1" to-layer="182" to-port="4" />
		<edge from-layer="182" from-port="5" to-layer="188" to-port="0" />
		<edge from-layer="183" from-port="0" to-layer="184" to-port="0" />
		<edge from-layer="184" from-port="1" to-layer="187" to-port="0" />
		<edge from-layer="185" from-port="0" to-layer="186" to-port="0" />
		<edge from-layer="186" from-port="1" to-layer="187" to-port="1" />
		<edge from-layer="187" from-port="2" to-layer="188" to-port="1" />
		<edge from-layer="188" from-port="2" to-layer="191" to-port="0" />
		<edge from-layer="189" from-port="0" to-layer="190" to-port="0" />
		<edge from-layer="190" from-port="1" to-layer="191" to-port="1" />
		<edge from-layer="191" from-port="2" to-layer="192" to-port="0" />
		<edge from-layer="192" from-port="1" to-layer="201" to-port="0" />
		<edge from-layer="193" from-port="0" to-layer="194" to-port="0" />
		<edge from-layer="194" from-port="1" to-layer="201" to-port="1" />
		<edge from-layer="195" from-port="0" to-layer="196" to-port="0" />
		<edge from-layer="196" from-port="1" to-layer="201" to-port="2" />
		<edge from-layer="197" from-port="0" to-layer="198" to-port="0" />
		<edge from-layer="198" from-port="1" to-layer="201" to-port="3" />
		<edge from-layer="199" from-port="0" to-layer="200" to-port="0" />
		<edge from-layer="200" from-port="1" to-layer="201" to-port="4" />
		<edge from-layer="201" from-port="5" to-layer="207" to-port="0" />
		<edge from-layer="202" from-port="0" to-layer="203" to-port="0" />
		<edge from-layer="203" from-port="1" to-layer="206" to-port="0" />
		<edge from-layer="204" from-port="0" to-layer="205" to-port="0" />
		<edge from-layer="205" from-port="1" to-layer="206" to-port="1" />
		<edge from-layer="206" from-port="2" to-layer="207" to-port="1" />
		<edge from-layer="207" from-port="2" to-layer="210" to-port="0" />
		<edge from-layer="208" from-port="0" to-layer="209" to-port="0" />
		<edge from-layer="209" from-port="1" to-layer="210" to-port="1" />
		<edge from-layer="210" from-port="2" to-layer="211" to-port="0" />
		<edge from-layer="211" from-port="1" to-layer="220" to-port="0" />
		<edge from-layer="212" from-port="0" to-layer="213" to-port="0" />
		<edge from-layer="213" from-port="1" to-layer="220" to-port="1" />
		<edge from-layer="214" from-port="0" to-layer="215" to-port="0" />
		<edge from-layer="215" from-port="1" to-layer="220" to-port="2" />
		<edge from-layer="216" from-port="0" to-layer="217" to-port="0" />
		<edge from-layer="217" from-port="1" to-layer="220" to-port="3" />
		<edge from-layer="218" from-port="0" to-layer="219" to-port="0" />
		<edge from-layer="219" from-port="1" to-layer="220" to-port="4" />
		<edge from-layer="220" from-port="5" to-layer="226" to-port="0" />
		<edge from-layer="221" from-port="0" to-layer="222" to-port="0" />
		<edge from-layer="222" from-port="1" to-layer="225" to-port="0" />
		<edge from-layer="223" from-port="0" to-layer="224" to-port="0" />
		<edge from-layer="224" from-port="1" to-layer="225" to-port="1" />
		<edge from-layer="225" from-port="2" to-layer="226" to-port="1" />
		<edge from-layer="226" from-port="2" to-layer="229" to-port="0" />
		<edge from-layer="227" from-port="0" to-layer="228" to-port="0" />
		<edge from-layer="228" from-port="1" to-layer="229" to-port="1" />
		<edge from-layer="229" from-port="2" to-layer="230" to-port="0" />
		<edge from-layer="230" from-port="1" to-layer="239" to-port="0" />
		<edge from-layer="231" from-port="0" to-layer="232" to-port="0" />
		<edge from-layer="232" from-port="1" to-layer="239" to-port="1" />
		<edge from-layer="233" from-port="0" to-layer="234" to-port="0" />
		<edge from-layer="234" from-port="1" to-layer="239" to-port="2" />
		<edge from-layer="235" from-port="0" to-layer="236" to-port="0" />
		<edge from-layer="236" from-port="1" to-layer="239" to-port="3" />
		<edge from-layer="237" from-port="0" to-layer="238" to-port="0" />
		<edge from-layer="238" from-port="1" to-layer="239" to-port="4" />
		<edge from-layer="239" from-port="5" to-layer="245" to-port="0" />
		<edge from-layer="240" from-port="0" to-layer="241" to-port="0" />
		<edge from-layer="241" from-port="1" to-layer="244" to-port="0" />
		<edge from-layer="242" from-port="0" to-layer="243" to-port="0" />
		<edge from-layer="243" from-port="1" to-layer="244" to-port="1" />
		<edge from-layer="244" from-port="2" to-layer="245" to-port="1" />
		<edge from-layer="245" from-port="2" to-layer="248" to-port="0" />
		<edge from-layer="246" from-port="0" to-layer="247" to-port="0" />
		<edge from-layer="247" from-port="1" to-layer="248" to-port="1" />
		<edge from-layer="248" from-port="2" to-layer="249" to-port="0" />
		<edge from-layer="249" from-port="1" to-layer="258" to-port="0" />
		<edge from-layer="250" from-port="0" to-layer="251" to-port="0" />
		<edge from-layer="251" from-port="1" to-layer="258" to-port="1" />
		<edge from-layer="252" from-port="0" to-layer="253" to-port="0" />
		<edge from-layer="253" from-port="1" to-layer="258" to-port="2" />
		<edge from-layer="254" from-port="0" to-layer="255" to-port="0" />
		<edge from-layer="255" from-port="1" to-layer="258" to-port="3" />
		<edge from-layer="256" from-port="0" to-layer="257" to-port="0" />
		<edge from-layer="257" from-port="1" to-layer="258" to-port="4" />
		<edge from-layer="258" from-port="5" to-layer="264" to-port="0" />
		<edge from-layer="259" from-port="0" to-layer="260" to-port="0" />
		<edge from-layer="260" from-port="1" to-layer="263" to-port="0" />
		<edge from-layer="261" from-port="0" to-layer="262" to-port="0" />
		<edge from-layer="262" from-port="1" to-layer="263" to-port="1" />
		<edge from-layer="263" from-port="2" to-layer="264" to-port="1" />
		<edge from-layer="264" from-port="2" to-layer="267" to-port="0" />
		<edge from-layer="265" from-port="0" to-layer="266" to-port="0" />
		<edge from-layer="266" from-port="1" to-layer="267" to-port="1" />
		<edge from-layer="267" from-port="2" to-layer="268" to-port="0" />
		<edge from-layer="268" from-port="1" to-layer="277" to-port="0" />
		<edge from-layer="269" from-port="0" to-layer="270" to-port="0" />
		<edge from-layer="270" from-port="1" to-layer="277" to-port="1" />
		<edge from-layer="271" from-port="0" to-layer="272" to-port="0" />
		<edge from-layer="272" from-port="1" to-layer="277" to-port="2" />
		<edge from-layer="273" from-port="0" to-layer="274" to-port="0" />
		<edge from-layer="274" from-port="1" to-layer="277" to-port="3" />
		<edge from-layer="275" from-port="0" to-layer="276" to-port="0" />
		<edge from-layer="276" from-port="1" to-layer="277" to-port="4" />
		<edge from-layer="277" from-port="5" to-layer="283" to-port="0" />
		<edge from-layer="278" from-port="0" to-layer="279" to-port="0" />
		<edge from-layer="279" from-port="1" to-layer="282" to-port="0" />
		<edge from-layer="280" from-port="0" to-layer="281" to-port="0" />
		<edge from-layer="281" from-port="1" to-layer="282" to-port="1" />
		<edge from-layer="282" from-port="2" to-layer="283" to-port="1" />
		<edge from-layer="283" from-port="2" to-layer="286" to-port="0" />
		<edge from-layer="284" from-port="0" to-layer="285" to-port="0" />
		<edge from-layer="285" from-port="1" to-layer="286" to-port="1" />
		<edge from-layer="286" from-port="2" to-layer="287" to-port="0" />
		<edge from-layer="287" from-port="1" to-layer="296" to-port="0" />
		<edge from-layer="288" from-port="0" to-layer="289" to-port="0" />
		<edge from-layer="289" from-port="1" to-layer="296" to-port="1" />
		<edge from-layer="290" from-port="0" to-layer="291" to-port="0" />
		<edge from-layer="291" from-port="1" to-layer="296" to-port="2" />
		<edge from-layer="292" from-port="0" to-layer="293" to-port="0" />
		<edge from-layer="293" from-port="1" to-layer="296" to-port="3" />
		<edge from-layer="294" from-port="0" to-layer="295" to-port="0" />
		<edge from-layer="295" from-port="1" to-layer="296" to-port="4" />
		<edge from-layer="296" from-port="5" to-layer="302" to-port="0" />
		<edge from-layer="297" from-port="0" to-layer="298" to-port="0" />
		<edge from-layer="298" from-port="1" to-layer="301" to-port="0" />
		<edge from-layer="299" from-port="0" to-layer="300" to-port="0" />
		<edge from-layer="300" from-port="1" to-layer="301" to-port="1" />
		<edge from-layer="301" from-port="2" to-layer="302" to-port="1" />
		<edge from-layer="302" from-port="2" to-layer="305" to-port="0" />
		<edge from-layer="303" from-port="0" to-layer="304" to-port="0" />
		<edge from-layer="304" from-port="1" to-layer="305" to-port="1" />
		<edge from-layer="305" from-port="2" to-layer="306" to-port="0" />
		<edge from-layer="306" from-port="1" to-layer="315" to-port="0" />
		<edge from-layer="307" from-port="0" to-layer="308" to-port="0" />
		<edge from-layer="308" from-port="1" to-layer="315" to-port="1" />
		<edge from-layer="309" from-port="0" to-layer="310" to-port="0" />
		<edge from-layer="310" from-port="1" to-layer="315" to-port="2" />
		<edge from-layer="311" from-port="0" to-layer="312" to-port="0" />
		<edge from-layer="312" from-port="1" to-layer="315" to-port="3" />
		<edge from-layer="313" from-port="0" to-layer="314" to-port="0" />
		<edge from-layer="314" from-port="1" to-layer="315" to-port="4" />
		<edge from-layer="315" from-port="5" to-layer="321" to-port="0" />
		<edge from-layer="316" from-port="0" to-layer="317" to-port="0" />
		<edge from-layer="317" from-port="1" to-layer="320" to-port="0" />
		<edge from-layer="318" from-port="0" to-layer="319" to-port="0" />
		<edge from-layer="319" from-port="1" to-layer="320" to-port="1" />
		<edge from-layer="320" from-port="2" to-layer="321" to-port="1" />
		<edge from-layer="321" from-port="2" to-layer="324" to-port="0" />
		<edge from-layer="322" from-port="0" to-layer="323" to-port="0" />
		<edge from-layer="323" from-port="1" to-layer="324" to-port="1" />
		<edge from-layer="324" from-port="2" to-layer="325" to-port="0" />
		<edge from-layer="325" from-port="1" to-layer="334" to-port="0" />
		<edge from-layer="326" from-port="0" to-layer="327" to-port="0" />
		<edge from-layer="327" from-port="1" to-layer="334" to-port="1" />
		<edge from-layer="328" from-port="0" to-layer="329" to-port="0" />
		<edge from-layer="329" from-port="1" to-layer="334" to-port="2" />
		<edge from-layer="330" from-port="0" to-layer="331" to-port="0" />
		<edge from-layer="331" from-port="1" to-layer="334" to-port="3" />
		<edge from-layer="332" from-port="0" to-layer="333" to-port="0" />
		<edge from-layer="333" from-port="1" to-layer="334" to-port="4" />
		<edge from-layer="334" from-port="5" to-layer="340" to-port="0" />
		<edge from-layer="335" from-port="0" to-layer="336" to-port="0" />
		<edge from-layer="336" from-port="1" to-layer="339" to-port="0" />
		<edge from-layer="337" from-port="0" to-layer="338" to-port="0" />
		<edge from-layer="338" from-port="1" to-layer="339" to-port="1" />
		<edge from-layer="339" from-port="2" to-layer="340" to-port="1" />
		<edge from-layer="340" from-port="2" to-layer="343" to-port="0" />
		<edge from-layer="341" from-port="0" to-layer="342" to-port="0" />
		<edge from-layer="342" from-port="1" to-layer="343" to-port="1" />
		<edge from-layer="343" from-port="2" to-layer="344" to-port="0" />
		<edge from-layer="344" from-port="1" to-layer="353" to-port="0" />
		<edge from-layer="345" from-port="0" to-layer="346" to-port="0" />
		<edge from-layer="346" from-port="1" to-layer="353" to-port="1" />
		<edge from-layer="347" from-port="0" to-layer="348" to-port="0" />
		<edge from-layer="348" from-port="1" to-layer="353" to-port="2" />
		<edge from-layer="349" from-port="0" to-layer="350" to-port="0" />
		<edge from-layer="350" from-port="1" to-layer="353" to-port="3" />
		<edge from-layer="351" from-port="0" to-layer="352" to-port="0" />
		<edge from-layer="352" from-port="1" to-layer="353" to-port="4" />
		<edge from-layer="353" from-port="5" to-layer="359" to-port="0" />
		<edge from-layer="354" from-port="0" to-layer="355" to-port="0" />
		<edge from-layer="355" from-port="1" to-layer="358" to-port="0" />
		<edge from-layer="356" from-port="0" to-layer="357" to-port="0" />
		<edge from-layer="357" from-port="1" to-layer="358" to-port="1" />
		<edge from-layer="358" from-port="2" to-layer="359" to-port="1" />
		<edge from-layer="359" from-port="2" to-layer="362" to-port="0" />
		<edge from-layer="360" from-port="0" to-layer="361" to-port="0" />
		<edge from-layer="361" from-port="1" to-layer="362" to-port="1" />
		<edge from-layer="362" from-port="2" to-layer="363" to-port="0" />
		<edge from-layer="363" from-port="1" to-layer="372" to-port="0" />
		<edge from-layer="364" from-port="0" to-layer="365" to-port="0" />
		<edge from-layer="365" from-port="1" to-layer="372" to-port="1" />
		<edge from-layer="366" from-port="0" to-layer="367" to-port="0" />
		<edge from-layer="367" from-port="1" to-layer="372" to-port="2" />
		<edge from-layer="368" from-port="0" to-layer="369" to-port="0" />
		<edge from-layer="369" from-port="1" to-layer="372" to-port="3" />
		<edge from-layer="370" from-port="0" to-layer="371" to-port="0" />
		<edge from-layer="371" from-port="1" to-layer="372" to-port="4" />
		<edge from-layer="372" from-port="5" to-layer="378" to-port="0" />
		<edge from-layer="373" from-port="0" to-layer="374" to-port="0" />
		<edge from-layer="374" from-port="1" to-layer="377" to-port="0" />
		<edge from-layer="375" from-port="0" to-layer="376" to-port="0" />
		<edge from-layer="376" from-port="1" to-layer="377" to-port="1" />
		<edge from-layer="377" from-port="2" to-layer="378" to-port="1" />
		<edge from-layer="378" from-port="2" to-layer="381" to-port="0" />
		<edge from-layer="379" from-port="0" to-layer="380" to-port="0" />
		<edge from-layer="380" from-port="1" to-layer="381" to-port="1" />
		<edge from-layer="381" from-port="2" to-layer="382" to-port="0" />
		<edge from-layer="382" from-port="1" to-layer="391" to-port="0" />
		<edge from-layer="383" from-port="0" to-layer="384" to-port="0" />
		<edge from-layer="384" from-port="1" to-layer="391" to-port="1" />
		<edge from-layer="385" from-port="0" to-layer="386" to-port="0" />
		<edge from-layer="386" from-port="1" to-layer="391" to-port="2" />
		<edge from-layer="387" from-port="0" to-layer="388" to-port="0" />
		<edge from-layer="388" from-port="1" to-layer="391" to-port="3" />
		<edge from-layer="389" from-port="0" to-layer="390" to-port="0" />
		<edge from-layer="390" from-port="1" to-layer="391" to-port="4" />
		<edge from-layer="391" from-port="5" to-layer="397" to-port="0" />
		<edge from-layer="392" from-port="0" to-layer="393" to-port="0" />
		<edge from-layer="393" from-port="1" to-layer="396" to-port="0" />
		<edge from-layer="394" from-port="0" to-layer="395" to-port="0" />
		<edge from-layer="395" from-port="1" to-layer="396" to-port="1" />
		<edge from-layer="396" from-port="2" to-layer="397" to-port="1" />
		<edge from-layer="397" from-port="2" to-layer="400" to-port="0" />
		<edge from-layer="398" from-port="0" to-layer="399" to-port="0" />
		<edge from-layer="399" from-port="1" to-layer="400" to-port="1" />
		<edge from-layer="400" from-port="2" to-layer="401" to-port="0" />
		<edge from-layer="401" from-port="1" to-layer="410" to-port="0" />
		<edge from-layer="402" from-port="0" to-layer="403" to-port="0" />
		<edge from-layer="403" from-port="1" to-layer="410" to-port="1" />
		<edge from-layer="404" from-port="0" to-layer="405" to-port="0" />
		<edge from-layer="405" from-port="1" to-layer="410" to-port="2" />
		<edge from-layer="406" from-port="0" to-layer="407" to-port="0" />
		<edge from-layer="407" from-port="1" to-layer="410" to-port="3" />
		<edge from-layer="408" from-port="0" to-layer="409" to-port="0" />
		<edge from-layer="409" from-port="1" to-layer="410" to-port="4" />
		<edge from-layer="410" from-port="5" to-layer="416" to-port="0" />
		<edge from-layer="411" from-port="0" to-layer="412" to-port="0" />
		<edge from-layer="412" from-port="1" to-layer="415" to-port="0" />
		<edge from-layer="413" from-port="0" to-layer="414" to-port="0" />
		<edge from-layer="414" from-port="1" to-layer="415" to-port="1" />
		<edge from-layer="415" from-port="2" to-layer="416" to-port="1" />
		<edge from-layer="416" from-port="2" to-layer="419" to-port="0" />
		<edge from-layer="417" from-port="0" to-layer="418" to-port="0" />
		<edge from-layer="418" from-port="1" to-layer="419" to-port="1" />
		<edge from-layer="419" from-port="2" to-layer="420" to-port="0" />
		<edge from-layer="420" from-port="1" to-layer="429" to-port="0" />
		<edge from-layer="421" from-port="0" to-layer="422" to-port="0" />
		<edge from-layer="422" from-port="1" to-layer="429" to-port="1" />
		<edge from-layer="423" from-port="0" to-layer="424" to-port="0" />
		<edge from-layer="424" from-port="1" to-layer="429" to-port="2" />
		<edge from-layer="425" from-port="0" to-layer="426" to-port="0" />
		<edge from-layer="426" from-port="1" to-layer="429" to-port="3" />
		<edge from-layer="427" from-port="0" to-layer="428" to-port="0" />
		<edge from-layer="428" from-port="1" to-layer="429" to-port="4" />
		<edge from-layer="429" from-port="5" to-layer="435" to-port="0" />
		<edge from-layer="430" from-port="0" to-layer="431" to-port="0" />
		<edge from-layer="431" from-port="1" to-layer="434" to-port="0" />
		<edge from-layer="432" from-port="0" to-layer="433" to-port="0" />
		<edge from-layer="433" from-port="1" to-layer="434" to-port="1" />
		<edge from-layer="434" from-port="2" to-layer="435" to-port="1" />
		<edge from-layer="435" from-port="2" to-layer="438" to-port="0" />
		<edge from-layer="436" from-port="0" to-layer="437" to-port="0" />
		<edge from-layer="437" from-port="1" to-layer="438" to-port="1" />
		<edge from-layer="438" from-port="2" to-layer="439" to-port="0" />
		<edge from-layer="439" from-port="1" to-layer="448" to-port="0" />
		<edge from-layer="440" from-port="0" to-layer="441" to-port="0" />
		<edge from-layer="441" from-port="1" to-layer="448" to-port="1" />
		<edge from-layer="442" from-port="0" to-layer="443" to-port="0" />
		<edge from-layer="443" from-port="1" to-layer="448" to-port="2" />
		<edge from-layer="444" from-port="0" to-layer="445" to-port="0" />
		<edge from-layer="445" from-port="1" to-layer="448" to-port="3" />
		<edge from-layer="446" from-port="0" to-layer="447" to-port="0" />
		<edge from-layer="447" from-port="1" to-layer="448" to-port="4" />
		<edge from-layer="448" from-port="5" to-layer="454" to-port="0" />
		<edge from-layer="449" from-port="0" to-layer="450" to-port="0" />
		<edge from-layer="450" from-port="1" to-layer="453" to-port="0" />
		<edge from-layer="451" from-port="0" to-layer="452" to-port="0" />
		<edge from-layer="452" from-port="1" to-layer="453" to-port="1" />
		<edge from-layer="453" from-port="2" to-layer="454" to-port="1" />
		<edge from-layer="454" from-port="2" to-layer="457" to-port="0" />
		<edge from-layer="455" from-port="0" to-layer="456" to-port="0" />
		<edge from-layer="456" from-port="1" to-layer="457" to-port="1" />
		<edge from-layer="457" from-port="2" to-layer="458" to-port="0" />
		<edge from-layer="458" from-port="1" to-layer="467" to-port="0" />
		<edge from-layer="459" from-port="0" to-layer="460" to-port="0" />
		<edge from-layer="460" from-port="1" to-layer="467" to-port="1" />
		<edge from-layer="461" from-port="0" to-layer="462" to-port="0" />
		<edge from-layer="462" from-port="1" to-layer="467" to-port="2" />
		<edge from-layer="463" from-port="0" to-layer="464" to-port="0" />
		<edge from-layer="464" from-port="1" to-layer="467" to-port="3" />
		<edge from-layer="465" from-port="0" to-layer="466" to-port="0" />
		<edge from-layer="466" from-port="1" to-layer="467" to-port="4" />
		<edge from-layer="467" from-port="5" to-layer="473" to-port="0" />
		<edge from-layer="468" from-port="0" to-layer="469" to-port="0" />
		<edge from-layer="469" from-port="1" to-layer="472" to-port="0" />
		<edge from-layer="470" from-port="0" to-layer="471" to-port="0" />
		<edge from-layer="471" from-port="1" to-layer="472" to-port="1" />
		<edge from-layer="472" from-port="2" to-layer="473" to-port="1" />
		<edge from-layer="473" from-port="2" to-layer="476" to-port="0" />
		<edge from-layer="474" from-port="0" to-layer="475" to-port="0" />
		<edge from-layer="475" from-port="1" to-layer="476" to-port="1" />
		<edge from-layer="476" from-port="2" to-layer="477" to-port="0" />
		<edge from-layer="477" from-port="1" to-layer="486" to-port="0" />
		<edge from-layer="478" from-port="0" to-layer="479" to-port="0" />
		<edge from-layer="479" from-port="1" to-layer="486" to-port="1" />
		<edge from-layer="480" from-port="0" to-layer="481" to-port="0" />
		<edge from-layer="481" from-port="1" to-layer="486" to-port="2" />
		<edge from-layer="482" from-port="0" to-layer="483" to-port="0" />
		<edge from-layer="483" from-port="1" to-layer="486" to-port="3" />
		<edge from-layer="484" from-port="0" to-layer="485" to-port="0" />
		<edge from-layer="485" from-port="1" to-layer="486" to-port="4" />
		<edge from-layer="486" from-port="5" to-layer="492" to-port="0" />
		<edge from-layer="487" from-port="0" to-layer="488" to-port="0" />
		<edge from-layer="488" from-port="1" to-layer="491" to-port="0" />
		<edge from-layer="489" from-port="0" to-layer="490" to-port="0" />
		<edge from-layer="490" from-port="1" to-layer="491" to-port="1" />
		<edge from-layer="491" from-port="2" to-layer="492" to-port="1" />
		<edge from-layer="492" from-port="2" to-layer="495" to-port="0" />
		<edge from-layer="493" from-port="0" to-layer="494" to-port="0" />
		<edge from-layer="494" from-port="1" to-layer="495" to-port="1" />
		<edge from-layer="495" from-port="2" to-layer="496" to-port="0" />
		<edge from-layer="496" from-port="1" to-layer="505" to-port="0" />
		<edge from-layer="497" from-port="0" to-layer="498" to-port="0" />
		<edge from-layer="498" from-port="1" to-layer="505" to-port="1" />
		<edge from-layer="499" from-port="0" to-layer="500" to-port="0" />
		<edge from-layer="500" from-port="1" to-layer="505" to-port="2" />
		<edge from-layer="501" from-port="0" to-layer="502" to-port="0" />
		<edge from-layer="502" from-port="1" to-layer="505" to-port="3" />
		<edge from-layer="503" from-port="0" to-layer="504" to-port="0" />
		<edge from-layer="504" from-port="1" to-layer="505" to-port="4" />
		<edge from-layer="505" from-port="5" to-layer="511" to-port="0" />
		<edge from-layer="506" from-port="0" to-layer="507" to-port="0" />
		<edge from-layer="507" from-port="1" to-layer="510" to-port="0" />
		<edge from-layer="508" from-port="0" to-layer="509" to-port="0" />
		<edge from-layer="509" from-port="1" to-layer="510" to-port="1" />
		<edge from-layer="510" from-port="2" to-layer="511" to-port="1" />
		<edge from-layer="511" from-port="2" to-layer="514" to-port="0" />
		<edge from-layer="512" from-port="0" to-layer="513" to-port="0" />
		<edge from-layer="513" from-port="1" to-layer="514" to-port="1" />
		<edge from-layer="514" from-port="2" to-layer="515" to-port="0" />
		<edge from-layer="515" from-port="1" to-layer="524" to-port="0" />
		<edge from-layer="516" from-port="0" to-layer="517" to-port="0" />
		<edge from-layer="517" from-port="1" to-layer="524" to-port="1" />
		<edge from-layer="518" from-port="0" to-layer="519" to-port="0" />
		<edge from-layer="519" from-port="1" to-layer="524" to-port="2" />
		<edge from-layer="520" from-port="0" to-layer="521" to-port="0" />
		<edge from-layer="521" from-port="1" to-layer="524" to-port="3" />
		<edge from-layer="522" from-port="0" to-layer="523" to-port="0" />
		<edge from-layer="523" from-port="1" to-layer="524" to-port="4" />
		<edge from-layer="524" from-port="5" to-layer="526" to-port="0" />
		<edge from-layer="525" from-port="0" to-layer="526" to-port="1" />
		<edge from-layer="526" from-port="2" to-layer="535" to-port="0" />
		<edge from-layer="527" from-port="0" to-layer="528" to-port="0" />
		<edge from-layer="528" from-port="1" to-layer="535" to-port="1" />
		<edge from-layer="529" from-port="0" to-layer="530" to-port="0" />
		<edge from-layer="530" from-port="1" to-layer="535" to-port="2" />
		<edge from-layer="531" from-port="0" to-layer="532" to-port="0" />
		<edge from-layer="532" from-port="1" to-layer="535" to-port="3" />
		<edge from-layer="533" from-port="0" to-layer="534" to-port="0" />
		<edge from-layer="534" from-port="1" to-layer="535" to-port="4" />
		<edge from-layer="535" from-port="5" to-layer="537" to-port="0" />
		<edge from-layer="536" from-port="0" to-layer="537" to-port="1" />
		<edge from-layer="537" from-port="2" to-layer="543" to-port="0" />
		<edge from-layer="538" from-port="0" to-layer="539" to-port="0" />
		<edge from-layer="539" from-port="1" to-layer="542" to-port="0" />
		<edge from-layer="540" from-port="0" to-layer="541" to-port="0" />
		<edge from-layer="541" from-port="1" to-layer="542" to-port="1" />
		<edge from-layer="542" from-port="2" to-layer="543" to-port="1" />
		<edge from-layer="543" from-port="2" to-layer="546" to-port="0" />
		<edge from-layer="544" from-port="0" to-layer="545" to-port="0" />
		<edge from-layer="545" from-port="1" to-layer="546" to-port="1" />
		<edge from-layer="546" from-port="2" to-layer="548" to-port="0" />
		<edge from-layer="547" from-port="0" to-layer="548" to-port="1" />
		<edge from-layer="548" from-port="2" to-layer="549" to-port="0" />
		<edge from-layer="549" from-port="1" to-layer="550" to-port="0" />
	</edges>
	<rt_info>
		<Runtime_version value="2023.3.0-13775-ceeafaf64f3-releases/2023/3" />
		<conversion_parameters>
			<input_model value="DIR/mobilenet_v1.onnx" />
			<is_python_object value="False" />
		</conversion_parameters>
		<nncf>
			<friendly_names_were_updated value="True" />
			<quantization>
				<advanced_parameters value="{}" />
				<fast_bias_correction value="True" />
				<ignored_scope value="None" />
				<model_type value="None" />
				<preset value="None" />
				<subset_size value="300" />
				<target_device value="ANY" />
			</quantization>
		</nncf>
	</rt_info>
</net>
